results/bugFixing
/MoveToGoal/checkpoint.pt (torch, 147255 bytes, 12 tensors)

network_body._body_endoder.seq_layers.0.weight f4 [128, 4]
0.25478974 -0.17086868 0.02314713 0.026127983 -0.065330476 -1.0611392 -0.07551387 0.3364634
-0.08134773 0.31990916 0.49473566 0.41964373 -0.3517944 0.8011806 -0.35197684 -0.2220349
0.187178 0.7489529 0.20432746 0.12892063 -0.39508066 0.3015473 0.20161559 0.45094806
-0.021582805 -0.12832384 0.29021388 -0.23208544 0.1459908 0.45406234 0.2066658 -0.11017908
0.41797477 -0.30047104 -0.34226084 -0.4173612 0.027622493 -0.024647128 0.98752517 0.11981327
-0.1883283 -0.86524755 0.38900632 -0.4262306 -0.033287488 0.7163222 0.27037907 -0.4100698
-0.047305353 -0.9692078 0.17790277 -0.72297406 -0.38281283 0.3121998 -0.14370795 0.5924111
-0.28202716 0.038642377 -0.8199494 0.57021904 0.6074658 0.6118478 0.35356906 -0.35804945
0.36217535 -0.22198504 -0.44528487 0.35401604 0.302786 0.060324084 0.3498298 -0.27820098
0.58148074 0.47622654 -0.14538227 -0.27889884 0.050984953 0.06129265 0.7495237 -0.80630773
-0.29380134 -0.24753915 0.64682275 -0.097893424 -0.10825792 -0.34977528 0.227479 -0.81186587
0.59019315 0.15550299 -0.55432403 0.41487265 0.62319636 0.42754975 -0.44048056 0.08893337
0.016879475 0.39460203 0.79965097 0.14153697 -1.053136 -0.472753 -0.40919814 -0.22684889
-0.15908045 -0.061581764 0.43439677 -0.19199932 0.78790635 0.6005129 0.74402714 -0.5984773
-0.5540822 -0.682165 0.53683186 0.35409558 -0.17375627 0.1461943 0.52012455 0.4276521
-0.5991562 0.7176706 0.09834336 0.17584266 -0.65921485 -0.7281212 0.8547338 -0.20478728
0.21056336 0.43561256 -0.16060264 -0.09269394 -0.041445576 1.3076669 -0.76332325 0.35877702
-0.4527214 -0.22584811 -0.36639664 0.08491379 -1.372799 0.024889147 -0.023210634 0.57967246
0.49430713 -0.08166959 -0.32403407 -0.6287353 -0.2901764 -0.27975985 -0.5702529 0.77639806
-0.48438445 0.9682719 0.507827 -0.50926816 0.6095855 -0.46311525 -0.0839383 -0.32642058
0.07446023 -0.71327776 -0.120909326 0.4305654 -0.41621614 0.4527445 0.12553772 0.17702205
0.50045407 0.46668038 -0.20573172 -0.1312452 -0.22923487 -0.0063922806 0.60181135 0.95359594
-0.68718076 -0.1807604 0.26260707 -0.58553433 -0.2360854 0.009319588 -0.5714897 -0.5900712
-0.17664793 -0.6410412 0.16102493 0.1671876 0.5870857 -0.40069428 -0.15175 -0.49841833
-0.84495264 -0.19404115 0.5390895 -0.14822654 -0.2807398 0.078878924 -0.08568671 -1.054585
-0.23651655 -0.76375717 -0.12503085 -0.10950338 -0.044537522 -0.805713 0.31408826 -0.08776253
-0.28604057 -0.08440524 0.20683073 0.6640884 -0.9203954 0.32961485 0.49709937 0.30454227
-0.868196 -0.030468797 0.22727576 -0.33822957 0.6760113 -0.05195935 0.7584976 0.0006241001
-0.6569164 -0.87668574 -0.07640391 0.44836032 0.12718388 0.38406748 -0.13996181 -0.42789263
0.099946216 0.09829932 0.7954002 0.17641045 0.31786865 0.5192009 0.6692243 0.73663527
-0.3710292 -0.34393317 -0.09636541 0.04486241 0.63348675 0.21313415 -0.11102235 0.29733533
-0.13172823 0.39849466 0.5609698 -0.3854941 -0.31210998 -0.49044222 -0.12973213 0.40983364
00000000: cd73 823e 33f8 2ebe 0d9f bd3c 5a0a d63c
00000010: fccb 85bd 69d3 87bf 04a7 9abd ee44 ac3e
00000020: a399 a6bd 22cb a33e fe4d fd3e 8bdb d63e
00000030: 651e b4be 2c1a 4d3f 4f36 b4be 1e5d 63be
00000040: 97ab 3f3e 61bb 3f3f 383b 513e c503 043e
00000050: 0348 cabe 6864 9a3e 5174 4e3e aae2 e63e
00000060: 6cce b0bc 5367 03be ea96 943e cea7 6dbe
00000070: 9d7e 153e dc7a e83e 33a0 533e 92a5 e1bd
00000080: ca00 d63e 57d7 99be d03c afbe 5eb0 d5be
00000090: 9148 e23c c6e8 c9bc 73ce 7c3f a960 f53d
000000a0: 22d9 40be dd80 5dbf d62b c73e e63a dabe
000000b0: 7658 08bd e460 373f 206f 8a3e abf4 d1be
000000c0: 42c3 41bd 011e 78bf 252c 363e d414 39bf
000000d0: 0b00 c4be a7d8 9f3e 2d28 13be 41a8 173f
000000e0: dd65 90be 7847 1e3d 34e8 51bf e0f9 113f
000000f0: e182 1b3f 0fa2 1c3f 0107 b53e 4252 b7be
00000100: 0c6f b93e 0c50 63be 61fc e3be 9741 b53e
00000110: c406 9b3e 6316 773d e41c b33e 5c70 8ebe
00000120: ecdb 143f f7d3 f33e 17df 14be d4cb 8ebe
00000130: 99d5 503d 000e 7b3d c9e0 3f3f 2f6a 4ebf
00000140: 216d 96be e77a 7dbe 2d96 253f 597c c8bd
00000150: 54b6 ddbd bf15 b3be 41f0 683e 71d6 4fbf
00000160: e616 173f 2d3c 1f3e 2ee8 0dbf 306a d43e
00000170: cc89 1f3f cde7 da3e ab86 e1be b322 b63d
00000180: d346 8a3c 4709 ca3e edb5 4c3f 11ef 103e
00000190: 29cd 86bf ae0c f2be 6b82 d1be 134b 68be
000001a0: fce5 22be 293d 7cbd 4169 de3e 789b 44be
000001b0: 3bb4 493f 37bb 193f 9078 3e3f cf35 19bf
000001c0: 55d8 0dbf 5ea2 2ebf d06d 093f 044c b53e
000001d0: 2aed 31be f5b3 153e e226 053f 37f5 da3e
000001e0: 4d62 19bf 43b9 373f 3e68 c93d 1910 343e
000001f0: 4ec2 28bf 2766 3abf d6cf 5a3f c2b3 51be
00000200: ec9d 573e 9c08 df3e 0575 24be 52d6 bdbd
00000210: d6c2 29bd a161 a73f 2769 43bf 9fb1 b73e
00000220: 19cb e7be ba44 67be 5798 bbbe 48e7 ad3d
00000230: e1b7 afbf 53e4 cb3c 3a24 bebc 6a65 143f
00000240: d315 fd3e 6342 a7bd cbe7 a5be ccf4 20bf
00000250: 0092 94be af3c 8fbe 18fc 11bf 06c2 463f
00000260: 3d01 f8be abe0 773f f300 023f 665f 02bf
00000270: cc0d 1c3f 711d edbe d8e7 abbd 9920 a7be
00000280: 9b7e 983d 5f99 36bf 4f9f f7bd 1173 dc3e
00000290: 481a d5be 21ce e73e f68c 003e 4545 353e
000002a0: c21d 003f bbf0 ee3e 56ab 52be 2465 06be
000002b0: 8cbc 6abe 5676 d1bb 4f10 1a3f dd1e 743f
000002c0: 14eb 2fbf 4119 39be 6f74 863e 94e5 15bf
000002d0: 5fc0 71be 2fb1 183c 264d 12bf e80e 17bf
000002e0: 32e3 34be 471b 24bf b8e3 243e 3a33 2b3e
000002f0: 404b 163f cd27 cdbe 5a64 1bbe b030 ffbe
00000300: d14e 58bf b9b2 46be c501 0a3f b3c8 17be
00000310: 21bd 8fbe 468b a13d 847c afbd a4fc 86bf
00000320: 6531 72be 9785 43bf 1608 00be 4f43 e0bd
00000330: fa6c 36bd 3543 4ebf 2dd0 a03e d7bc b3bd
00000340: e973 92be a8dc acbd 6fcb 533e b301 2a3f
00000350: 089f 6bbf 47c3 a83e cf83 fe3e f7ec 9b3e
00000360: 1842 5ebf b399 f9bc faba 683e 6d2c adbe
00000370: 140f 2d3f 54d3 54bd e62c 423f a69a 233a
00000380: ac2b 28bf 7a6e 60bf a779 9cbd 7c8f e53e
00000390: 7e3c 023e 7ea4 c43e 2652 0fbe be14 dbbe
000003a0: 9ab0 cc3d 2751 c93d 599f 4b3f f1a4 343e
000003b0: aebf a23e 5aea 043f 4952 2b3f 2194 3c3f
000003c0: 8af7 bdbe 0218 b0be 3a5b c5bd a5c1 373d
000003d0: 302c 223f d73f 5a3e b05f e3bd 563c 983e
000003e0: c4e3 06be 7e07 cc3e b89b 0f3f 7c5f c5be
000003f0: e1cc 9fbe 3e1b fbbe 80d8 04be b7d5 d13e

network_body._body_endoder.seq_layers.0.bias f4 [128]
0.0 0.0 0.0 0.0 0.0 0.0 0.0 0.0
0.0 0.0 0.0 0.0 0.0 0.0 0.0 0.0
0.0 0.0 0.0 0.0 0.0 0.0 0.0 0.0
0.0 0.0 0.0 0.0 0.0 0.0 0.0 0.0
0.0 0.0 0.0 0.0 0.0 0.0 0.0 0.0
0.0 0.0 0.0 0.0 0.0 0.0 0.0 0.0
0.0 0.0 0.0 0.0 0.0 0.0 0.0 0.0
0.0 0.0 0.0 0.0 0.0 0.0 0.0 0.0
0.0 0.0 0.0 0.0 0.0 0.0 0.0 0.0
0.0 0.0 0.0 0.0 0.0 0.0 0.0 0.0
0.0 0.0 0.0 0.0 0.0 0.0 0.0 0.0
0.0 0.0 0.0 0.0 0.0 0.0 0.0 0.0
0.0 0.0 0.0 0.0 0.0 0.0 0.0 0.0
0.0 0.0 0.0 0.0 0.0 0.0 0.0 0.0
0.0 0.0 0.0 0.0 0.0 0.0 0.0 0.0
0.0 0.0 0.0 0.0 0.0 0.0 0.0 0.0
00000000: 0000 0000 0000 0000 0000 0000 0000 0000
00000010: 0000 0000 0000 0000 0000 0000 0000 0000
00000020: 0000 0000 0000 0000 0000 0000 0000 0000
00000030: 0000 0000 0000 0000 0000 0000 0000 0000
00000040: 0000 0000 0000 0000 0000 0000 0000 0000
00000050: 0000 0000 0000 0000 0000 0000 0000 0000
00000060: 0000 0000 0000 0000 0000 0000 0000 0000
00000070: 0000 0000 0000 0000 0000 0000 0000 0000
00000080: 0000 0000 0000 0000 0000 0000 0000 0000
00000090: 0000 0000 0000 0000 0000 0000 0000 0000
000000a0: 0000 0000 0000 0000 0000 0000 0000 0000
000000b0: 0000 0000 0000 0000 0000 0000 0000 0000
000000c0: 0000 0000 0000 0000 0000 0000 0000 0000
000000d0: 0000 0000 0000 0000 0000 0000 0000 0000
000000e0: 0000 0000 0000 0000 0000 0000 0000 0000
000000f0: 0000 0000 0000 0000 0000 0000 0000 0000
00000100: 0000 0000 0000 0000 0000 0000 0000 0000
00000110: 0000 0000 0000 0000 0000 0000 0000 0000
00000120: 0000 0000 0000 0000 0000 0000 0000 0000
00000130: 0000 0000 0000 0000 0000 0000 0000 0000
00000140: 0000 0000 0000 0000 0000 0000 0000 0000
00000150: 0000 0000 0000 0000 0000 0000 0000 0000
00000160: 0000 0000 0000 0000 0000 0000 0000 0000
00000170: 0000 0000 0000 0000 0000 0000 0000 0000
00000180: 0000 0000 0000 0000 0000 0000 0000 0000
00000190: 0000 0000 0000 0000 0000 0000 0000 0000
000001a0: 0000 0000 0000 0000 0000 0000 0000 0000
000001b0: 0000 0000 0000 0000 0000 0000 0000 0000
000001c0: 0000 0000 0000 0000 0000 0000 0000 0000
000001d0: 0000 0000 0000 0000 0000 0000 0000 0000
000001e0: 0000 0000 0000 0000 0000 0000 0000 0000
000001f0: 0000 0000 0000 0000 0000 0000 0000 0000

network_body._body_endoder.seq_layers.2.weight f4 [128, 128]
-0.025037915 0.08106872 0.021155985 -0.0052424194 -0.09806708 0.090723574 -0.06174281 0.055911444
0.035731275 0.01764138 0.10148969 -0.03262393 -0.07737128 0.026314285 -0.040982857 -0.15666461
0.05036169 0.13647828 0.10722206 -0.07815632 0.10252031 0.15685259 -0.038696658 0.0015957651
-0.013060616 0.03259046 -0.121853426 -0.022701861 0.014056196 -0.11430957 0.0654808 0.18970014
-0.014141112 -0.044421285 -0.11478261 -0.047972713 -0.12621295 -0.064068146 -0.03337845 0.093500085
-0.033541985 0.053135794 0.18920453 0.06911784 -0.12680128 -0.053031698 -0.03289815 -0.051758815
0.00073801033 0.19339064 0.08087702 0.025860656 0.14878148 -0.055503726 -0.015235634 -0.13511644
-0.07834332 -0.09643692 -0.059716325 0.028761994 0.09497098 -0.027216174 -0.16698664 0.03378156
0.049945317 0.044273105 0.16060168 0.1351163 -0.14070353 -0.07370039 -0.02628457 -0.1204839
-0.0027661598 -0.072849244 0.0011577791 0.13961656 -0.017444104 0.06300262 0.11452212 0.0876811
0.013517549 -0.017685765 0.053770494 0.042332575 -0.05510074 0.05117491 -0.08102175 0.044573773
0.039397914 0.029103018 -0.016654827 -0.03633361 -0.034024294 0.068866156 -0.111774735 0.046821166
0.04501068 0.04287419 0.13818875 0.019518116 -0.057829853 0.011325502 -0.012769121 -0.10219091
-0.1646068 0.053351045 0.065106906 0.14172988 -0.12379209 -0.029425714 -0.04776442 0.03611817
0.08696187 -0.038979825 0.028478103 0.056647986 0.08923619 -0.019404918 0.13578072 -0.113613084
0.06517716 0.018497337 0.008947086 0.072314814 0.0524996 0.00880549 0.1092328 0.06528775
0.10124324 0.14068067 -0.031502 0.03548492 -0.065721564 0.035167348 0.07779531 -0.12865794
0.11271056 -0.017489392 -0.022308806 0.005504083 0.11670029 -0.10407968 0.007157237 0.0045678588
-0.011539638 -0.0034860112 -0.10426578 0.15024956 0.018283688 -0.08885998 0.073131815 -0.03888395
0.05556221 0.055171825 0.07466247 0.2017157 -0.028682845 -0.05029073 0.081432685 -0.11912637
0.048856832 0.09442364 0.013399356 -0.064314 -0.011803279 0.02131734 0.06542089 -0.056229934
0.13328448 0.0626272 -0.03202859 0.07282302 0.0176897 0.10131074 -0.008920694 0.10350233
0.022875754 0.16259557 -0.14794241 0.05027503 -0.059475936 -0.10534094 -0.01033447 -0.05508606
-0.17564455 -0.032240633 -0.043923523 -0.05587789 0.044695314 0.0027659896 0.07560101 -0.14222886
-0.19169712 0.07447554 0.14173764 -0.108421944 -0.055754542 0.110437155 0.07004195 0.12500127
0.050533745 0.04192777 0.027918005 -0.00589364 -0.03330552 -0.013833168 0.09704559 0.14369832
-0.072742775 -0.044312138 -0.047798507 -0.06639743 -0.094374664 -0.016664315 0.093295686 0.04086301
0.1501701 -0.0267479 -0.08385243 -0.028897412 0.08157853 0.06520786 0.05720852 0.029336382
0.069211975 -0.11390599 -0.026672138 0.032346167 -0.02754925 -0.024541557 0.07344331 0.046427235
0.053503063 0.047100905 0.065377675 0.08739613 -0.08252625 -0.03528592 -0.01856264 -0.14857975
-0.017302172 -0.0629901 0.099608734 0.1827379 -0.040975083 0.061493978 -0.052746158 0.21237752
0.100398004 0.0124890795 0.07172015 0.022784494 -0.015690578 0.058927562 -0.00022426779 -0.056923375
00000000: 501c cdbc 5b07 a63d 514f ad3c 9ac8 abbb
00000010: 65d7 c8bd 48cd b93d 07e6 7cbd 6603 653d
00000020: f55a 123d a884 903c d4d9 cf3d aca0 05bd
00000030: d574 9ebd 0e91 d73c a4dd 27bd b06c 20be
00000040: 0f48 4e3d f6c0 0b3e 3d97 db3d 6c10 a0bd
00000050: 2bf6 d13d f79d 203e 6380 1ebd fe28 d13a
00000060: 32fc 55bc 937d 053d 4a8e f9bd 41f9 b9bc
00000070: f64b 663c 231b eabd cc1a 863d c140 423e
00000080: 1fb0 67bc 18f3 35bd 2513 ebbd 097f 44bd
00000090: f83d 01be 2936 83bd d7b7 08bd f97c bf3d
000000a0: 5263 09bd eba4 593d d5be 413e a78d 8d3d
000000b0: 32d8 01be c437 59bd 36c0 06bd 0d01 54bd
000000c0: 0977 413a 3208 463e daa2 a53d bad9 d33c
000000d0: 2c5a 183e e057 63bd e19e 79bc f75b 0abe
000000e0: 7672 a0bd b880 c5bd 1b99 74bd 469e eb3c
000000f0: 2580 c23d 74f4 debc 8cfe 2abe 885e 0a3d
00000100: 7693 4c3d b757 353d c474 243e ed5b 0a3e
00000110: 9614 10be 3bf0 96bd bd52 d7bc 43c0 f6bd
00000120: 7648 35bb fc31 95bd 9fc0 973a a5f7 0e3e
00000130: f0e6 8ebc 8507 813d 938a ea3d 2692 b33d
00000140: b678 5d3c bde1 90bc 733e 5c3d ec64 2d3d
00000150: 50b1 61bd c89c 513d bbee a5bd fd92 363d
00000160: b55f 213d 7469 ee3c b46f 88bc 8dd2 14bd
00000170: 0f5d 0bbd b309 8d3d 27ea e4bd 8dc7 3f3d
00000180: 1e5d 383d d99c 2f3d 5a81 0d3e 75e4 9f3c
00000190: ffde 6cbd 998e 393c 9335 51bc 7849 d1bd
000001a0: af8e 28be a086 5a3d c556 853d a321 113e
000001b0: b586 fdbd 320e f1bc a0a4 43bd a5f0 133d
000001c0: 1119 b23d 4fa9 1fbd e94a e93c b807 683d
000001d0: 77c1 b63d 10f7 9ebc 1a0a 0b3e faad e8bd
000001e0: 9a7b 853d ba87 973c cc96 123c ca19 943d
000001f0: d209 573d e744 103c 72b5 df3d 95b5 853d
00000200: 9e58 cf3d 980e 103e 3e08 01bd a358 113d
00000210: 0799 86bd a30b 103d 2653 9f3d e8be 03be
00000220: cbd4 e63d ea45 8fbc f5c0 b6bc 985b b43b
00000230: 9000 ef3d ba27 d5bd 4187 ea3b faad 953b
00000240: c010 3dbc 9075 64bb 4c89 d5bd 05db 193e
00000250: acc7 953c 39fc b5bd 22c6 953d c744 1fbd
00000260: 3395 633d dafb 613d a3e8 983d 8f8e 4e3e
00000270: 49f8 eabc a7fd 4dbd 2ec6 a63d 87f8 f3bd
00000280: 1a1e 483d 2e61 c13d f988 5b3c 0fb7 83bd
00000290: 8a62 41bc b4a1 ae3c 63fb 853d 5c51 66bd
000002a0: ba7b 083e b042 803d 6930 03bd 3c24 953d
000002b0: fde9 903c 017c cf3d 1a28 12bc 08f9 d33d
000002c0: ef65 bb3c 747f 263e 377e 17be 31ed 4d3d
000002d0: 0a9d 73bd febc d7bd e951 29bc eca1 61bd
000002e0: 2adc 33be c10e 04bd 27e9 33bd 37e0 64bd
000002f0: 6f12 373d 9b45 353b b4d4 9a3d 71a4 11be
00000300: 404c 44be a286 983d ac23 113e 530c debd
00000310: e05e 64bd e02c e23d 2772 8f3d 5500 003e
00000320: 79fc 4e3d 74bc 2b3d 4db4 e43c 701f c1bb
00000330: 5e6b 08bd 83a4 62bc d7bf c63d a725 133e
00000340: 2afa 94bd a580 35bd 5ec8 43bd 60fb 87bd
00000350: 8147 c1bd 9a83 88bc cf11 bf3d f95f 273d
00000360: 31c6 193e 691e dbbc d3ba abbd 44ba ecbc
00000370: a512 a73d b38b 853d 7b53 6a3d da52 f03c
00000380: 02bf 8d3d 8b47 e9bd 877f dabc 6a7d 043d
00000390: f7ae e1bc 600b c9bc 7269 963d 7c2a 3e3d
000003a0: 0726 5b3d e1ec 403d bbe4 853d befc b23d
000003b0: 8603 a9bd f887 10bd ad10 98bc 4a25 18be
000003c0: 49bd 8dbc f400 81bd aaff cb3d a51f 3b3e
000003d0: 7dd5 27bd 1ce1 7b3d 5b0c 58bd 7e79 593e
000003e0: 789d cd3d ff9e 4c3c 04e2 923d 8ca6 ba3c
000003f0: 8789 80bc 075e 713d 6d29 6bb9 7c28 69bd

network_body._body_endoder.seq_layers.2.bias f4 [128]
0.0 0.0 0.0 0.0 0.0 0.0 0.0 0.0
0.0 0.0 0.0 0.0 0.0 0.0 0.0 0.0
0.0 0.0 0.0 0.0 0.0 0.0 0.0 0.0
0.0 0.0 0.0 0.0 0.0 0.0 0.0 0.0
0.0 0.0 0.0 0.0 0.0 0.0 0.0 0.0
0.0 0.0 0.0 0.0 0.0 0.0 0.0 0.0
0.0 0.0 0.0 0.0 0.0 0.0 0.0 0.0
0.0 0.0 0.0 0.0 0.0 0.0 0.0 0.0
0.0 0.0 0.0 0.0 0.0 0.0 0.0 0.0
0.0 0.0 0.0 0.0 0.0 0.0 0.0 0.0
0.0 0.0 0.0 0.0 0.0 0.0 0.0 0.0
0.0 0.0 0.0 0.0 0.0 0.0 0.0 0.0
0.0 0.0 0.0 0.0 0.0 0.0 0.0 0.0
0.0 0.0 0.0 0.0 0.0 0.0 0.0 0.0
0.0 0.0 0.0 0.0 0.0 0.0 0.0 0.0
0.0 0.0 0.0 0.0 0.0 0.0 0.0 0.0
00000000: 0000 0000 0000 0000 0000 0000 0000 0000
00000010: 0000 0000 0000 0000 0000 0000 0000 0000
00000020: 0000 0000 0000 0000 0000 0000 0000 0000
00000030: 0000 0000 0000 0000 0000 0000 0000 0000
00000040: 0000 0000 0000 0000 0000 0000 0000 0000
00000050: 0000 0000 0000 0000 0000 0000 0000 0000
00000060: 0000 0000 0000 0000 0000 0000 0000 0000
00000070: 0000 0000 0000 0000 0000 0000 0000 0000
00000080: 0000 0000 0000 0000 0000 0000 0000 0000
00000090: 0000 0000 0000 0000 0000 0000 0000 0000
000000a0: 0000 0000 0000 0000 0000 0000 0000 0000
000000b0: 0000 0000 0000 0000 0000 0000 0000 0000
000000c0: 0000 0000 0000 0000 0000 0000 0000 0000
000000d0: 0000 0000 0000 0000 0000 0000 0000 0000
000000e0: 0000 0000 0000 0000 0000 0000 0000 0000
000000f0: 0000 0000 0000 0000 0000 0000 0000 0000
00000100: 0000 0000 0000 0000 0000 0000 0000 0000
00000110: 0000 0000 0000 0000 0000 0000 0000 0000
00000120: 0000 0000 0000 0000 0000 0000 0000 0000
00000130: 0000 0000 0000 0000 0000 0000 0000 0000
00000140: 0000 0000 0000 0000 0000 0000 0000 0000
00000150: 0000 0000 0000 0000 0000 0000 0000 0000
00000160: 0000 0000 0000 0000 0000 0000 0000 0000
00000170: 0000 0000 0000 0000 0000 0000 0000 0000
00000180: 0000 0000 0000 0000 0000 0000 0000 0000
00000190: 0000 0000 0000 0000 0000 0000 0000 0000
000001a0: 0000 0000 0000 0000 0000 0000 0000 0000
000001b0: 0000 0000 0000 0000 0000 0000 0000 0000
000001c0: 0000 0000 0000 0000 0000 0000 0000 0000
000001d0: 0000 0000 0000 0000 0000 0000 0000 0000
000001e0: 0000 0000 0000 0000 0000 0000 0000 0000
000001f0: 0000 0000 0000 0000 0000 0000 0000 0000

action_model._continuous_distribution.log_sigma f4 [1, 2]
0.0 0.0
00000000: 0000 0000 0000 0000

action_model._continuous_distribution.mu.weight f4 [2, 128]
-0.038720332 -0.01883398 0.013701046 -0.01322794 0.04502684 -0.0015490751 -0.019042844 0.0037544176
-0.02933611 -0.010068676 -0.0019043548 -0.004549868 -0.0042089554 -0.015760878 0.0059112003 -0.0053171734
-0.005278626 0.01782753 -0.043557327 -0.0004810277 -0.03918899 -0.037580766 -0.043111306 -0.023671674
-0.03312791 -0.008015251 0.02437802 0.034967374 0.0018669723 0.008660107 0.02014184 -0.0059350445
0.014343317 -0.023769794 -0.012471962 0.007839285 -0.008997894 -0.002228374 0.0015822159 -0.014746527
0.0017317738 0.017812168 0.02231916 -0.0072452524 -0.020668263 0.016754279 -0.031198183 0.0193938
0.008778642 -0.0058205556 0.009832723 -0.0055776066 0.024070667 0.040325668 0.009731312 -0.028954236
-0.012948732 0.014966749 0.01375335 -0.013806152 -0.00023392048 -0.03674173 0.0036142108 0.00405555
-0.0247904 0.007907129 -0.022861762 -0.014068975 0.022878727 -0.028600682 0.00214476 0.00804408
0.01612777 -0.00023716455 0.0034639207 0.044454195 0.017431803 -0.005595061 0.0056063975 0.000120430246
0.0020681296 -0.008813333 -0.02410196 -0.013129289 -0.008237983 0.023600984 0.00391509 0.018517436
0.008698413 0.014763825 -0.0016046226 0.013989841 0.024167217 -0.014130927 0.026304806 -0.0011522244
0.00527478 0.008559225 0.01966773 -0.011144193 -0.030690983 0.005723635 -0.0022928007 0.02147678
-0.01434588 0.010365135 0.0021772403 0.018959539 -0.0048573865 -0.0041434555 -0.025026841 0.012823658
0.01982828 0.010847216 -0.00044828092 -0.007771622 -0.01321629 0.013324848 -0.010313117 0.017510017
-0.037197288 0.013293244 0.01872076 -0.020243095 0.0016849993 0.0050935335 -0.015641322 -0.013304143
0.014082422 -0.0034790349 0.023993744 0.028352026 0.020392593 -0.0044531734 -0.01049014 -0.00084517914
0.014150323 -0.017816668 0.021359762 -0.0119007295 -0.002282704 0.014919831 -0.0015250327 0.0018062989
0.006360676 -0.0015084123 0.011660877 -0.027721567 -0.039664544 -0.032619253 0.018953303 -0.015667884
0.004659054 -0.013820519 -0.0148485 -0.0149002895 -0.00840506 0.033065997 0.004448598 -0.026984205
0.0012579609 -0.021180857 -0.0093885325 -0.008614208 0.014230047 -0.00036511384 -0.011469391 0.0117899915
0.0030061668 -0.00448915 0.004914501 0.028214661 0.002969531 0.01882322 0.006313838 -0.02692084
0.040065873 -0.03510665 -0.02100598 -0.0150682945 0.017291335 0.032415602 0.027372098 0.011446574
-0.011394406 -0.007518615 -0.0026826726 -0.0005471552 -0.0055181743 -0.016659563 -0.011902715 -0.0013340007
-0.0074593327 0.027798936 0.0048364527 -0.02005266 -0.023115976 -0.022753885 -0.020397455 0.05940337
0.018444123 0.007203568 -0.015020569 -0.030355444 -0.021060368 0.018191492 -0.0033980694 -0.023588883
0.01215701 -0.01380176 0.017120775 -0.009469412 -0.008565298 -0.014214161 0.0019017315 0.0007564506
0.014208612 -0.010987974 -0.0152093945 -0.023594825 0.016109558 0.012103035 0.007819047 -0.042394232
0.016608387 -0.020984426 0.0016371051 -0.0069166548 0.014802364 -0.01857164 0.0039541177 0.007366678
-0.005470702 0.042435538 0.006442934 -0.020660467 0.004467761 0.045604717 -0.013608071 0.0014429113
0.0041098963 -0.042592015 0.014685273 0.0071722283 -0.015184115 -0.024753356 -0.004317892 0.018440573
0.0042784344 -0.002045345 -0.01920649 -0.015472814 -0.010257484 0.0015743887 0.0243858 -0.00026715134
00000000: 3699 1ebd b849 9abc 5a7a 603c 00ba 58bc
00000010: 106e 383d 560a cbba bdff 9bbc ad0c 763b
00000020: 4852 f0bc 17f7 24bc 8b9b f9ba 0f17 95bb
00000030: 47eb 89bb f51c 81bc beb2 c13b af3b aebb
00000040: 53f8 acbb 0a0b 923c 2b69 32bd 7232 fcb9
00000050: a284 20bd 4aee 19bd 7b95 30bd 19eb c1bc
00000060: 22b1 07bd 6652 03bc 6ab4 c73c f339 0f3d
00000070: 32b5 f43a 1fe3 0d3c 8000 a53c c37a c2bb
00000080: 3b00 6b3c dfb8 c2bc 3357 4cbc 5870 003c
00000090: e76b 13bc e909 12bb 5b62 cf3a 6b9b 71bc
000000a0: b0fc e23a d3ea 913c acd6 b63c 9569 edbb
000000b0: 7d50 a9bc 4540 893c 5593 ffbc bfdf 9e3c
000000c0: 4bd4 0f3c 5cba bebb 6e19 213c 5bc4 b6bb
000000d0: d92f c53c 872c 253d 1570 1f3c 6f31 edbc
000000e0: eb26 54bc 1837 753c bb55 613c 3333 62bc
000000f0: 8d48 75b9 7f7e 16bd 65dc 6c3b 6be4 843b
00000100: 3d15 cbbc e78c 013c 9748 bbbc 8f81 66bc
00000110: 2b6c bb3c fa4b eabc 1a8f 0c3b 51cb 033c
00000120: 631e 843c 60af 78b9 f202 633b 9a15 363d
00000130: 24cd 8e3c c656 b7bb dfb5 b73b 7f8f fc38
00000140: 7589 073b cc65 10bc 7971 c5bc 3b1c 57bc
00000150: 9bf8 06bc da56 c13c 284a 803b e1b1 973c
00000160: ca83 0e3c f8e3 713c 3352 d2ba a535 653c
00000170: 54fa c53c 6785 67bc 2d7d d73c 3c06 97ba
00000180: 10d8 ac3b fe3b 0c3c 381e a13c 2296 36bc
00000190: a86b fbbc 558d bb3b d042 16bb 12f0 af3c
000001a0: fb0a 6bbc 87d2 293c 08b0 0e3b 0951 9b3c
000001b0: b62a 9fbb d3c5 87bb 1705 cdbc 521a 523c
000001c0: eb6e a23c 85b8 313c 3f07 ebb9 17a9 febb
000001d0: 2389 58bc 7750 5a3c 59f8 28bc 2b71 8f3c
000001e0: 2f5c 18bd e8cb 593c 475c 993c d9d4 a5bc
000001f0: 32db dc3a a8e7 a63b 3b22 80bc 9ff9 59bc
00000200: f5b9 663c 8500 64bb 878e c43c 8242 e83c
00000210: 5e0e a73c edeb 91bb d6de 2bbc 038f 5dba
00000220: c2d6 673c 43f4 91bc abfa ae3c 47fb 42bc
00000230: 6b99 15bb 4f72 743c 9be3 c7ba 55c1 ec3a
00000240: 386d d03b ebb5 c5ba 430d 3f3c 5718 e3bc
00000250: 4a77 22bd c49b 05bd f543 9b3c ef59 80bc
00000260: faaa 983b 756f 62bc 1f47 73bc 5820 74bc
00000270: 60b5 09bc 3670 073d 8bc5 913b fb0d ddbc
00000280: 2ae2 a43a 7a83 adbc 5cd2 19bc 9b22 0dbc
00000290: 2525 693c c06c bfb9 1dea 3bbc cf2a 413c
000002a0: 1c03 453b b819 93bb d309 a13b 6f22 e73c
000002b0: 779c 423b 2733 9a3c 50e4 ce3b 1889 dcbc
000002c0: 1d1c 243d fecb 0fbd bc14 acbc 02e1 76bc
000002d0: 8fa6 8d3c 39c6 043d 733b e03c 698a 3b3c
000002e0: 9aaf 3abc b75e f6bb c7cf 2fbb f76e 0fba
000002f0: cdd1 b4bb a379 88bc 9b03 43bc a3d9 aeba
00000300: 6b6d f4bb 98ba e33c 1b7b 9e3b 7a45 a4bc
00000310: b75d bdbc 5b66 babc 9018 a7bc f350 733d
00000320: 2118 973c e80b ec3b d518 76bc fbab f8bc
00000330: cb86 acbc 5306 953c 25b2 5ebb 793d c1bc
00000340: 322e 473c c720 62bc de40 8c3c 9825 1bbc
00000350: 7755 0cbc 83e2 68bc 8543 f93a 8a4c 463a
00000360: 3dcb 683c e706 34bc d330 79bc ef49 c1bc
00000370: 31f8 833c cf4b 463c 761b 003c 93a5 2dbd
00000380: 500e 883c 88e7 abbc 2294 d63a 1ba5 e2bb
00000390: 9d85 723c 8d23 98bc 8b91 813b 2d64 f13b
000003a0: 9343 b3bb e3d0 2d3d 3f1f d33b 2440 a9bc
000003b0: 4c66 923b 03cc 3a3d 63f4 5ebc 1220 bd3a
000003c0: 4fac 863b f774 2ebd 809a 703c 0305 eb3b
000003d0: cbc6 78bc 8dc7 cabc 1a7d 8dbb af10 973c
000003e0: 1c32 8c3b 320b 06bb ee56 9dbc b081 7dbc
000003f0: 020f 28bc b85b ce3a bbc4 c73c 7210 8cb9

action_model._continuous_distribution.mu.bias f4 [2]
0.0 0.0
00000000: 0000 0000 0000 0000

network_body._body_endoder.seq_layers.0.weight f4 [128, 4]
-0.65950584 0.39738727 0.3863204 -0.093395665 0.04117026 -0.19744039 -0.21974239 0.40877602
-0.14099343 0.1567827 -0.17377545 -0.026133306 -0.32943013 -0.7034977 0.95476425 -0.4001464
0.69158417 -0.026268654 0.4081201 -0.5257124 0.35352367 0.46295765 0.21981499 -0.10079025
0.54176676 -0.13112429 -1.910459 -0.038798314 0.47531593 -0.16807505 0.36568454 -0.37057483
-0.17922038 0.3718058 -0.67860276 0.98827857 0.0035160694 0.010990903 0.3046199 -0.3951772
-0.79148453 -0.7672247 1.1430941 0.3564094 0.38024685 -0.11633608 -0.23667486 -0.83299565
1.0982385 1.0408683 0.5059536 -0.25819758 1.1467791 -0.30923533 -0.5647937 0.13055705
0.79677665 0.708357 -0.44456315 0.35560507 1.1797168 -0.04001697 -0.28883836 -0.057754386
-0.28594676 0.07853214 0.48504415 -0.97417736 1.5014311 0.07368879 0.59105235 0.13558903
0.0054686186 0.135084 -0.41094738 0.5783287 0.88713694 0.5774663 0.15117177 0.095305055
-0.5428636 -0.1677149 0.2625426 0.08232083 -0.029620012 -0.11013585 0.5236111 0.49332434
0.15219922 0.6952128 0.08859461 -0.2859078 -0.7448439 0.28769404 0.61661315 -0.3025873
0.06438227 0.68413526 0.829295 -0.07060875 -0.41680166 -0.7661203 -0.18582638 0.1679399
0.16341335 -0.124365814 -0.6415557 -0.46155128 0.23994415 0.464329 -0.338815 -0.23105825
-0.33975375 0.43475455 0.61450076 -0.0974359 0.25814036 0.34633535 -0.3606467 -0.4747301
0.6984309 0.40767846 -0.1410868 -0.5008362 1.3004647 -0.19139059 -1.2470468 -0.47892913
0.59688324 -0.00799593 1.2612665 -1.1349905 0.95126003 -0.76682293 -0.27733338 -0.47150096
-0.3885781 0.2996233 -0.22708303 0.48331526 -0.63820267 0.70161545 -0.30207476 0.2941908
0.33093026 0.44087395 -0.3118786 0.19823939 -0.7196707 0.36917526 0.039302777 -0.021520797
0.49798506 -0.48062027 -0.34080845 -0.2616425 -0.4865776 -0.081627026 -0.06953859 1.3750223
-0.372096 0.021777723 -1.0174345 0.3834645 -0.63108635 -0.032871395 -0.10257402 -0.4415326
0.4269333 0.53078026 -0.37763852 0.592562 -0.5780534 -0.40183893 0.029067997 -0.8378172
-0.3469224 -0.41953477 -0.48916456 0.05758285 -0.75073636 0.059769984 1.1120793 -0.43232274
0.3338883 -0.74607986 0.657014 0.32519302 0.09675439 0.76 -0.26275185 -0.4330663
-0.33689323 -0.47769785 0.13567065 0.30319604 0.9520872 -0.6612811 0.06439091 -0.7712254
0.2851777 -0.11675935 0.30435896 -0.31071275 -0.18676293 -0.5641711 0.3490947 0.26612377
-0.8140499 0.025373308 0.44258845 0.08252361 -0.07206609 0.50075614 -0.3456656 -0.24498683
0.4730176 0.82573396 0.6896036 -0.040123474 0.24544121 -1.37928 -0.37558562 0.39077115
0.65894824 -0.93602747 -0.20268273 -0.2590074 -0.6277872 1.1745844 -0.88359135 0.638715
-0.16313021 0.5055575 0.1342425 0.045188367 -0.1916167 -1.4699774 0.18605739 0.4695156
-0.21999101 -0.31703085 -1.0420586 0.31969085 1.0074095 -0.6390392 -0.15791988 0.06654549
-0.2134742 -0.17185318 0.05967519 0.8772532 0.05506736 -0.019283257 0.14160894 0.7315077
00000000: 60d5 28bf 5876 cb3e cacb c53e 3a46 bfbd
00000010: 26a2 283d d02d 4abe 2604 61be 174b d13e
00000020: 9560 10be a58b 203e 31f2 31be 8415 d6bc
00000030: 11ab a8be 6d18 34bf 6e6b 743f fddf ccbe
00000040: a90b 313f 5c31 d7bc 1ef5 d03e 1695 06bf
00000050: 0e01 b53e c908 ed3e 2e17 613e 1e6b cebd
00000060: 3ab1 0a3f 7245 06be ec89 f4bf fbea 1ebd
00000070: 9c5c f33e de1b 2cbe 013b bb3e fcbb bdbe
00000080: 8c85 37be 545d be3e e9b8 2dbf d3ff 7c3f
00000090: db6d 663b 3013 343c 24f7 9b3e aa54 cabe
000000a0: bb9e 4abf d768 44bf e850 923f 4b7b b63e
000000b0: b7af c23e 9c41 eebd e55a 72be 343f 55bf
000000c0: 1493 8c3f 2c3b 853f 2d86 013f 7932 84be
000000d0: a8c9 923f 1854 9ebe 5296 10bf bfb0 053e
000000e0: 8ef9 4b3f e256 353f c89d e3be de11 b63e
000000f0: f600 973f d6e8 23bd 9fe2 93be dd8f 6cbd
00000100: 9d67 92be 75d5 a03d b557 f83e b063 79bf
00000110: e52e c03f 26ea 963d 354f 173f dad7 0a3e
00000120: 1932 b33b 7653 0a3e b267 d2be 5a0d 143f
00000130: 681b 633f d5d4 133f c6cc 1a3e 4c2f c33d
00000140: 1cf9 0abf 74bd 2bbe fc6b 863e d397 a83d
00000150: aba5 f2bc e88e e1bd 610b 063f 0295 fc3e
00000160: 1dda 1b3e 77f9 313f 1771 b53d 8262 92be
00000170: 17ae 3ebf a24c 933e 5cda 1d3f b9ec 9abe
00000180: dada 833d 7d23 2f3f ad4c 543f 529b 90bd
00000190: 0767 d5be 7620 44bf 4549 3ebe 70f8 2b3e
000001a0: d455 273e 81b3 febd ff3c 24bf 7350 ecbe
000001b0: ebb3 753e 88bc ed3e 2979 adbe 899a 6cbe
000001c0: 34f4 adbe 2698 de3e ec4f 1d3f 798c c7bd
000001d0: f92a 843e de52 b13e afa6 b8be d30f f3be
000001e0: 5ecc 323f 3bbb d03e 0f79 10be cd36 00bf
000001f0: a175 a63f e5fb 43be 3b9f 9fbf 3336 f5be
00000200: 57cd 183f 5c01 03bc 2e71 a13f 5e47 91bf
00000210: c785 733f 824e 44bf a4fe 8dbe 9368 f1be
00000220: b5f3 c6be 3a68 993e 7488 68be 1975 f73e
00000230: 4061 23bf 129d 333f 8ba9 9abe 2da0 963e
00000240: b16f a93e 3bba e13e 8dae 9fbe 44ff 4a3e
00000250: 573c 38bf 8a04 bd3e f3fb 203d 624c b0bc
00000260: e6f7 fe3e dc13 f6be 727e aebe 01f6 85be
00000270: b320 f9be 122c a7bd 406a 8ebd bb00 b03f
00000280: 5e83 bebe 3267 b23c 4b3b 82bf 7555 c43e
00000290: e08e 21bf 28a4 06bd 5412 d2bd 9010 e2be
000002a0: 0097 da3e 37e1 073f d659 c1be 25b2 173f
000002b0: 4ffb 13bf d5bd cdbe 0220 ee3c 307b 56bf
000002c0: d09f b1be 43cd d6be c773 fabe ffdb 6b3d
000002d0: 4230 40bf 5fd1 743d 9d58 8e3f 6859 ddbe
000002e0: 68f3 aa3e 17ff 3ebf 1232 283f b37f a63e
000002f0: 2a27 c63d 5c8f 423f 6987 86be deba ddbe
00000300: 457d acbe d094 f4be 3fed 0a3e 833c 9b3e
00000310: fdbb 733f b849 29bf 62df 833d 076f 45bf
00000320: d002 923e 871f efbd f0d4 9b3e be15 9fbe
00000330: c83e 3fbe 846d 10bf 8abc b23e 6041 883e
00000340: 9365 50bf afdb cf3c f49a e23e 2302 a93d
00000350: 6397 93bd 8e31 003f 15fb b0be d4dd 7abe
00000360: 5d2f f23e 4d63 533f dd89 303f 8358 24bd
00000370: f154 7b3e 3f8c b0bf c24c c0be 2813 c83e
00000380: d5b0 283f 7f9f 6fbf 108c 4fbe 9e9c 84be
00000390: a9b6 20bf c858 963f 0b33 62bf d482 233f
000003a0: 9b0b 27be 376c 013f de76 093e 7017 393d
000003b0: 2b37 44be 3828 bcbf d485 3e3e 5964 f03e
000003c0: 5345 61be de51 a2be 2d62 85bf 85ae a33e
000003d0: cbf2 803f 1398 23bf c0b5 21be 0049 883d
000003e0: fb98 5abe 48fa 2fbe f96d 743d aa93 603f
000003f0: 508e 613d ecf7 9dbc ef01 113e 1744 3b3f

network_body._body_endoder.seq_layers.0.bias f4 [128]
0.0 0.0 0.0 0.0 0.0 0.0 0.0 0.0
0.0 0.0 0.0 0.0 0.0 0.0 0.0 0.0
0.0 0.0 0.0 0.0 0.0 0.0 0.0 0.0
0.0 0.0 0.0 0.0 0.0 0.0 0.0 0.0
0.0 0.0 0.0 0.0 0.0 0.0 0.0 0.0
0.0 0.0 0.0 0.0 0.0 0.0 0.0 0.0
0.0 0.0 0.0 0.0 0.0 0.0 0.0 0.0
0.0 0.0 0.0 0.0 0.0 0.0 0.0 0.0
0.0 0.0 0.0 0.0 0.0 0.0 0.0 0.0
0.0 0.0 0.0 0.0 0.0 0.0 0.0 0.0
0.0 0.0 0.0 0.0 0.0 0.0 0.0 0.0
0.0 0.0 0.0 0.0 0.0 0.0 0.0 0.0
0.0 0.0 0.0 0.0 0.0 0.0 0.0 0.0
0.0 0.0 0.0 0.0 0.0 0.0 0.0 0.0
0.0 0.0 0.0 0.0 0.0 0.0 0.0 0.0
0.0 0.0 0.0 0.0 0.0 0.0 0.0 0.0
00000000: 0000 0000 0000 0000 0000 0000 0000 0000
00000010: 0000 0000 0000 0000 0000 0000 0000 0000
00000020: 0000 0000 0000 0000 0000 0000 0000 0000
00000030: 0000 0000 0000 0000 0000 0000 0000 0000
00000040: 0000 0000 0000 0000 0000 0000 0000 0000
00000050: 0000 0000 0000 0000 0000 0000 0000 0000
00000060: 0000 0000 0000 0000 0000 0000 0000 0000
00000070: 0000 0000 0000 0000 0000 0000 0000 0000
00000080: 0000 0000 0000 0000 0000 0000 0000 0000
00000090: 0000 0000 0000 0000 0000 0000 0000 0000
000000a0: 0000 0000 0000 0000 0000 0000 0000 0000
000000b0: 0000 0000 0000 0000 0000 0000 0000 0000
000000c0: 0000 0000 0000 0000 0000 0000 0000 0000
000000d0: 0000 0000 0000 0000 0000 0000 0000 0000
000000e0: 0000 0000 0000 0000 0000 0000 0000 0000
000000f0: 0000 0000 0000 0000 0000 0000 0000 0000
00000100: 0000 0000 0000 0000 0000 0000 0000 0000
00000110: 0000 0000 0000 0000 0000 0000 0000 0000
00000120: 0000 0000 0000 0000 0000 0000 0000 0000
00000130: 0000 0000 0000 0000 0000 0000 0000 0000
00000140: 0000 0000 0000 0000 0000 0000 0000 0000
00000150: 0000 0000 0000 0000 0000 0000 0000 0000
00000160: 0000 0000 0000 0000 0000 0000 0000 0000
00000170: 0000 0000 0000 0000 0000 0000 0000 0000
00000180: 0000 0000 0000 0000 0000 0000 0000 0000
00000190: 0000 0000 0000 0000 0000 0000 0000 0000
000001a0: 0000 0000 0000 0000 0000 0000 0000 0000
000001b0: 0000 0000 0000 0000 0000 0000 0000 0000
000001c0: 0000 0000 0000 0000 0000 0000 0000 0000
000001d0: 0000 0000 0000 0000 0000 0000 0000 0000
000001e0: 0000 0000 0000 0000 0000 0000 0000 0000
000001f0: 0000 0000 0000 0000 0000 0000 0000 0000

network_body._body_endoder.seq_layers.2.weight f4 [128, 128]
-0.21716547 -0.08330168 0.09299866 0.0766529 0.13420422 -0.019351859 -0.10723979 -0.04673959
-0.05662602 -0.018547006 -0.012647644 -0.19073324 -0.007255969 0.109748065 -0.102152504 -0.11996805
-0.022494115 -0.124712594 -0.018131858 0.016476806 0.032850157 -0.14757106 0.055413004 -0.21904387
-0.035077177 -0.1685484 0.1416662 0.003863145 0.083030604 0.059459645 0.012041374 -0.0643278
-0.025078595 -0.10724089 0.08828412 0.19951427 -0.22666025 0.008754746 0.09171802 0.01752345
0.054358 0.06309796 -0.0073456843 -0.12253135 0.065344475 -0.06886829 0.08718513 -0.016717423
-0.058449034 0.036711246 -0.054494943 0.058866292 -0.10823007 0.020208519 -0.08648234 0.048984706
-0.07750216 -0.0033647644 0.18886255 0.03167719 -0.0101522785 -0.07639761 0.15733571 -0.07487761
-0.014240218 0.05865824 0.051251087 0.041665476 0.13683915 0.020797102 -0.085192166 -0.118402466
-0.21071106 0.05470753 0.092569664 -0.10910815 -0.061375268 0.06093107 0.08672365 -0.18010423
0.0089011565 0.12691921 -0.09993009 0.1433503 0.02246888 -0.007543536 -0.037011586 0.047867183
-0.11296418 0.001251419 -0.07884935 0.09583464 0.0518226 -0.073720925 -0.21929823 0.04163289
0.0013315893 -0.017669316 0.0588486 -0.08390273 0.0095312605 -0.008661489 0.15744962 -0.00853463
-0.04081637 0.043683697 -0.0065853717 0.04570455 0.04070032 0.087607875 -0.021783067 -0.06529645
-0.016967958 0.049226433 0.0725715 0.10971597 -0.11460455 -0.052293196 0.07252279 -0.0077889026
0.075727575 0.09546542 0.044191323 0.03713492 -0.104519844 -0.11553074 -0.0031999568 0.010694533
0.089296274 -0.041910097 -0.040094946 0.008353387 -0.1608607 0.052363276 0.012900258 -0.13910526
0.05083949 0.090258285 0.020186393 0.037860706 -0.07452331 0.0025089914 -0.057282314 -0.118501924
0.03861556 -0.14612071 -0.1671415 -0.017872931 -0.03299833 -0.030168949 -0.059692927 0.025514787
0.16713011 0.094757184 -0.028692525 0.052694634 0.05205643 -0.12188954 0.01680865 -0.05313674
-0.0074212085 -0.08086805 -0.0922237 0.013172803 0.08137621 0.06891939 0.06238167 -0.0795207
0.06693072 0.09545942 -0.13727596 -0.013070619 -0.10408515 0.011921561 -0.031953808 0.015676638
-0.03131595 0.13265443 -0.0069016726 0.07813979 -0.09398868 0.15464506 0.038178403 0.112029016
-0.049559392 -0.040836416 0.12114386 0.06802265 -0.036637202 -0.04003883 -0.003969967 0.14618178
-0.0665245 -0.042464696 0.09480493 0.06616006 -0.060346127 0.043533873 -0.06914745 0.04307159
-0.094300546 -0.017503768 0.06305149 -0.054794736 0.04001735 0.023708677 0.0014875277 -0.06761794
-0.0069376538 -0.11811963 -0.055352386 0.008260386 -0.041846696 -0.038557526 0.053099323 0.011395878
0.09089252 0.045624122 -0.052470688 -0.012082296 0.03788338 0.03018684 0.020737482 0.04813684
0.05428355 -0.05665348 -0.0593243 0.09825944 -0.0009786265 0.093114704 -0.017861737 0.046627443
0.027105214 -0.019537497 -0.03687729 -0.02166747 -0.120623395 0.014030523 -0.025665548 0.08665124
-0.15418918 0.11891162 0.0074871583 0.004166525 0.00831516 -0.046098415 0.07894286 -0.09770369
0.071921274 -0.14536612 0.08436872 -0.03519702 -0.037689187 -0.012317938 -0.0706131 -0.07292046
00000000: a060 5ebe 129a aabd 1576 be3d 32fc 9c3d
00000010: d56c 093e ca87 9ebc 89a0 dbbd 0372 3fbd
00000020: b0f0 67bd e4ef 97bc 1038 4fbc 934f 43be
00000030: 7bc3 edbb 98c3 e03d 5535 d1bd cfb1 f5bd
00000040: 9445 b8bc 5169 ffbd 4389 94bc 5efa 863c
00000050: e38d 063d de1c 17be bff8 623d 094d 60be
00000060: 16ad 0fbd f497 2cbe f210 113e d12c 7d3b
00000070: f30b aa3d f58b 733d 2f49 453c 4bbe 83bd
00000080: a071 cdbc 1da1 dbbd 4ece b43d 784d 4c3e
00000090: a019 68be 1170 0f3c a8d6 bb3d 578d 8f3c
000000a0: 7fa6 5e3d 8139 813d 11b4 f0bb b7f1 fabd
000000b0: 53d3 853d d10a 8dbd 1e8e b23d faf2 88bc
000000c0: 4168 6fbd 885e 163d 1736 5fbd c81d 713d
000000d0: baa7 ddbd 568c a53c a71d b1bd 30a4 483d
000000e0: 74b9 9ebd 6183 5cbb 2f65 413e f1bf 013d
000000f0: be55 26bc 5a76 9cbd 9d1c 213e 6f59 99bd
00000100: ce4f 69bc 9f43 703d a9ec 513d 6ba9 2a3d
00000110: 901f 0c3e af5e aa3c 3b79 aebd fe7c f2bd
00000120: a4c4 57be 0115 603d 2a95 bd3d 1874 dfbd
00000130: a264 7bbd dc92 793d 2b9c b13d 3e6d 38be
00000140: 28d6 113c 1cf7 013e 26a8 ccbd 6cca 123e
00000150: a810 b83c c42f f7bb 7699 17bd 6110 443d
00000160: c459 e7bd a706 a43a c57b a1bd f444 c43d
00000170: ef43 543d fffa 96bd b78f 60be 4087 2a3d
00000180: b988 ae3a 3ebf 90bc 3b0b 713d 32d5 abbd
00000190: 0129 1c3c ebe8 0dbc 793a 213e d5d4 0bbc
000001a0: 112f 27bd aded 323d 1aca d7bb b234 3b3d
000001b0: 61b5 263d c26b b33d 6772 b2bc 25ba 85bd
000001c0: 6300 8bbc a8a1 493d 5ea0 943d c4b2 e03d
000001d0: cab5 eabd 6431 56bd d486 943d 0d3a ffbb
000001e0: 0f17 9b3d 6083 c33d f601 353d c91a 183d
000001f0: 800e d6bd 619b ecbd 5eb6 51bb 1f38 2f3c
00000200: f7e0 b63d eca9 2bbd 993a 24bd a5dc 083c
00000210: abb8 24be e07a 563d 9b5b 533c 9c71 0ebe
00000220: 123d 503d 56d9 b83d ef5d a53c d413 1b3d
00000230: ad9f 98bd e46d 243b dca0 6abd 23b1 f2bd
00000240: 592b 1e3d aba0 15be 2427 2bbe 416a 92bc
00000250: 4229 07bd df24 f7bc 9280 74bd 6304 d13c
00000260: 2824 2b3e 0e10 c23d 960c ebbc 54d6 573d
00000270: 2039 553d 39a1 f9bd 4bb2 893c e9a5 59bd
00000280: 9c2d f3bb 269e a5bd c7df bcbd bed2 573c
00000290: 92a8 a63d 9c25 8d3d ec83 7f3d c0db a2bd
000002a0: f912 893d 3a80 c33d 1292 0cbe 2626 56bc
000002b0: 982a d5bd a752 433c ffe1 02bd 4b6c 803c
000002c0: 2745 00bd 90d6 073e 6d27 e2bb c107 a03d
000002d0: 237d c0bd 465b 1e3e f560 1c3d 786f e53d
000002e0: cafe 4abd 1644 27bd 461a f83d 764f 8b3d
000002f0: e410 16bd c2ff 23bd 7f16 82bb adb0 153e
00000300: ff3d 88bd 76ef 2dbd 1629 c23d ed7e 873d
00000310: 802d 77bd 9350 323d 2e9d 8dbd d66b 303d
00000320: a520 c1bd 1064 8fbc 2421 813d 7270 60bd
00000330: 3ce9 233d b338 c23c 26f9 c23a 467b 8abd
00000340: 4255 e3bb b4e8 f1bd 2fb9 62bd 9256 073c
00000350: 7167 2bbd 7fee 1dbd ad7e 593d c7b5 3a3c
00000360: dc25 ba3d 5ce0 3a3d 81eb 56bd d3f4 45bc
00000370: 9a2b 1b3d 644a f73c a7e1 a93c 232b 453d
00000380: 6d58 5e3d 7b0d 68bd 0afe 72bd 3f3c c93d
00000390: 4245 80ba ecb2 be3d c752 92bc 6bfc 3e3d
000003a0: c10b de3c 1a0d a0bc a40c 17bd fa7f b1bc
000003b0: 6609 f7bd 47e0 653c 8e40 d2bc 3576 b13d
000003c0: c5e3 1dbe ef87 f33d d656 f53b 5887 883b
000003d0: 4f3c 083c b1d1 3cbd cbac a13d df18 c8bd
000003e0: 764b 933d dbda 14be 82c9 ac3d c02a 10bd
000003f0: fa5f 1abd 2dd1 49bc 9a9d 90bd 5257 95bd

network_body._body_endoder.seq_layers.2.bias f4 [128]
0.0 0.0 0.0 0.0 0.0 0.0 0.0 0.0
0.0 0.0 0.0 0.0 0.0 0.0 0.0 0.0
0.0 0.0 0.0 0.0 0.0 0.0 0.0 0.0
0.0 0.0 0.0 0.0 0.0 0.0 0.0 0.0
0.0 0.0 0.0 0.0 0.0 0.0 0.0 0.0
0.0 0.0 0.0 0.0 0.0 0.0 0.0 0.0
0.0 0.0 0.0 0.0 0.0 0.0 0.0 0.0
0.0 0.0 0.0 0.0 0.0 0.0 0.0 0.0
0.0 0.0 0.0 0.0 0.0 0.0 0.0 0.0
0.0 0.0 0.0 0.0 0.0 0.0 0.0 0.0
0.0 0.0 0.0 0.0 0.0 0.0 0.0 0.0
0.0 0.0 0.0 0.0 0.0 0.0 0.0 0.0
0.0 0.0 0.0 0.0 0.0 0.0 0.0 0.0
0.0 0.0 0.0 0.0 0.0 0.0 0.0 0.0
0.0 0.0 0.0 0.0 0.0 0.0 0.0 0.0
0.0 0.0 0.0 0.0 0.0 0.0 0.0 0.0
00000000: 0000 0000 0000 0000 0000 0000 0000 0000
00000010: 0000 0000 0000 0000 0000 0000 0000 0000
00000020: 0000 0000 0000 0000 0000 0000 0000 0000
00000030: 0000 0000 0000 0000 0000 0000 0000 0000
00000040: 0000 0000 0000 0000 0000 0000 0000 0000
00000050: 0000 0000 0000 0000 0000 0000 0000 0000
00000060: 0000 0000 0000 0000 0000 0000 0000 0000
00000070: 0000 0000 0000 0000 0000 0000 0000 0000
00000080: 0000 0000 0000 0000 0000 0000 0000 0000
00000090: 0000 0000 0000 0000 0000 0000 0000 0000
000000a0: 0000 0000 0000 0000 0000 0000 0000 0000
000000b0: 0000 0000 0000 0000 0000 0000 0000 0000
000000c0: 0000 0000 0000 0000 0000 0000 0000 0000
000000d0: 0000 0000 0000 0000 0000 0000 0000 0000
000000e0: 0000 0000 0000 0000 0000 0000 0000 0000
000000f0: 0000 0000 0000 0000 0000 0000 0000 0000
00000100: 0000 0000 0000 0000 0000 0000 0000 0000
00000110: 0000 0000 0000 0000 0000 0000 0000 0000
00000120: 0000 0000 0000 0000 0000 0000 0000 0000
00000130: 0000 0000 0000 0000 0000 0000 0000 0000
00000140: 0000 0000 0000 0000 0000 0000 0000 0000
00000150: 0000 0000 0000 0000 0000 0000 0000 0000
00000160: 0000 0000 0000 0000 0000 0000 0000 0000
00000170: 0000 0000 0000 0000 0000 0000 0000 0000
00000180: 0000 0000 0000 0000 0000 0000 0000 0000
00000190: 0000 0000 0000 0000 0000 0000 0000 0000
000001a0: 0000 0000 0000 0000 0000 0000 0000 0000
000001b0: 0000 0000 0000 0000 0000 0000 0000 0000
000001c0: 0000 0000 0000 0000 0000 0000 0000 0000
000001d0: 0000 0000 0000 0000 0000 0000 0000 0000
000001e0: 0000 0000 0000 0000 0000 0000 0000 0000
000001f0: 0000 0000 0000 0000 0000 0000 0000 0000

value_heads.value_heads.extrinsic.weight f4 [1, 128]
-0.013820976 0.116013646 0.17490357 -0.014492229 0.11112559 -0.16080324 -0.1123624 0.12236601
-0.21299839 0.20949093 -0.08710362 -0.10621723 0.09269953 -0.06310251 -0.1769808 -0.09569331
-0.010631397 -0.20721568 -0.15149745 -0.02443631 -0.13501634 0.12855133 0.023245275 0.17293292
-0.14399418 -0.1318096 0.15684712 0.099344075 -0.1875088 -0.14945938 0.009726822 -0.1951753
-0.18138123 0.14289033 -0.15359084 0.041118473 0.17933983 0.041814566 0.17631081 0.013099775
-0.15932858 -0.04780528 -0.15765497 -0.08030787 -0.017438278 0.007995367 -0.11647967 0.13625956
-0.026355028 -0.16381519 0.13628307 0.071685255 -0.09175552 0.07383561 -0.07940084 -0.1626665
0.058177978 -0.19497234 0.18110898 0.008074224 0.0565404 0.026783675 -0.057947144 -0.1823681
-0.04939103 0.13655844 -0.052572325 0.19220564 0.056776524 0.08646089 -0.013625607 0.049049795
-0.16440918 -0.1481273 0.1417796 0.10622907 -0.023595467 -0.15913895 -0.055395216 0.07624093
-0.03283319 -0.21229775 0.06127861 -0.14586295 0.105930686 -0.04072526 -0.06679496 -0.07134341
0.0071424097 0.09900847 -0.08607912 -0.1324679 0.10364941 0.117714584 0.20673126 0.016951755
0.028738663 -0.045103252 -0.047830686 -0.043748498 -0.13385703 -0.046963885 0.21511817 -0.021469533
-0.15878963 0.10590726 0.12214014 -0.15741545 0.21027622 0.086671144 -0.10358248 0.06473929
0.14987764 0.031194404 -0.01702866 0.06063226 0.1972149 -0.0104916245 0.10311565 -0.07361913
0.058919102 -0.14220142 0.12963814 -0.1540102 -0.0057594627 0.016723841 0.10217643 0.15468633
00000000: 6071 62bc 9098 ed3d ec19 333e d070 6dbc
00000010: d095 e33d 9ba9 24be 421e e6bd 089b fa3d
00000020: 401c 5abe ca84 563e 6263 b2bd 6b88 d9bd
00000030: 40d9 bd3d e43b 81bd 743a 35be dbfa c3bd
00000040: 502f 2ebc 5930 54be 2622 1bbe a82e c8bc
00000050: b941 0abe f6a2 033e e06c be3c 5415 313e
00000060: 3673 13be 19f9 06be 889c 203e e874 cb3d
00000070: 4f02 40be e10b 19be 405d 1f3c 09dc 47be
00000080: 00bc 39be d851 123e eb46 1dbe d86b 283d
00000090: dca4 373e c045 2b3d d28a 343e 70a0 563c
000000a0: 0827 23be 78cf 43bd 4e70 21be 7478 a4bd
000000b0: b8da 8ebc 00ff 023c e58c eebd a087 0b3e
000000c0: 80e6 d7bc 2bbf 27be ca8d 0b3e b8cf 923d
000000d0: 51ea bbbd 2037 973d e89c a2bd 0c92 26be
000000e0: 084c 6e3d d4a6 47be a274 393e c049 043c
000000f0: e896 673d 7069 db3c fc59 6dbd b4be 3abe
00000100: 404e 4abd fad5 0b3e 1456 57bd 8ed1 443e
00000110: 808e 683d 6812 b13d f03d 5fbc 70e8 483d
00000120: e15a 28be afae 17be ac2e 113e a08e d93d
00000130: 484b c1bc 52f5 22be 18e6 62bd 3424 9c3d
00000140: 187c 06bd 9564 59be 48ff 7a3d 195d 15be
00000150: 30f2 d83d 88cf 26bd cccb 88bd 7e1c 92bd
00000160: e00a ea3b f4c4 ca3d 404a b0bd aaa5 07be
00000170: 2446 d43d 5814 f13d 5cb1 533e 68de 8a3c
00000180: 586d eb3c 30be 38bd 1cea 43bd a031 33bd
00000190: d111 09be 345d 40bd f047 5c3e e0e0 afbc
000001a0: c099 22be e8e5 d83d 9c24 fa3d 8431 21be
000001b0: a652 573e a480 b13d 0d23 d4bd 0896 843d
000001c0: 8679 193e 688b ff3c b07f 8bbc 8859 783d
000001d0: b4f2 493e 10e5 2bbc 4c2e d33d a0c5 96bd
000001e0: 2855 713d 409d 11be dcbf 043e dab4 1dbe
000001f0: e0b9 bcbb 7000 893c e041 d13d 1866 1e3e
