results/bugFixing
/MoveToGoal.onnx (onnx, 71620 bytes, 7 tensors)

network_body._body_endoder.seq_layers.0.weight f4 [128, 4]
000000 cd 73 82 3e 33 f8 2e be 0d 9f bd 3c 5a 0a d6 3c
       0.25478974 -0.17086868 0.02314713 0.026127983
000010 fc cb 85 bd 69 d3 87 bf 04 a7 9a bd ee 44 ac 3e
       -0.065330476 -1.0611392 -0.07551387 0.3364634
000020 a3 99 a6 bd 22 cb a3 3e fe 4d fd 3e 8b db d6 3e
       -0.08134773 0.31990916 0.49473566 0.41964373
000030 65 1e b4 be 2c 1a 4d 3f 4f 36 b4 be 1e 5d 63 be
       -0.3517944 0.8011806 -0.35197684 -0.2220349
000040 97 ab 3f 3e 61 bb 3f 3f 38 3b 51 3e c5 03 04 3e
       0.187178 0.7489529 0.20432746 0.12892063
000050 03 48 ca be 68 64 9a 3e 51 74 4e 3e aa e2 e6 3e
       -0.39508066 0.3015473 0.20161559 0.45094806
000060 6c ce b0 bc 53 67 03 be ea 96 94 3e ce a7 6d be
       -0.021582805 -0.12832384 0.29021388 -0.23208544
000070 9d 7e 15 3e dc 7a e8 3e 33 a0 53 3e 92 a5 e1 bd
       0.1459908 0.45406234 0.2066658 -0.11017908
000080 ca 00 d6 3e 57 d7 99 be d0 3c af be 5e b0 d5 be
       0.41797477 -0.30047104 -0.34226084 -0.4173612
000090 91 48 e2 3c c6 e8 c9 bc 73 ce 7c 3f a9 60 f5 3d
       0.027622493 -0.024647128 0.98752517 0.11981327
0000a0 22 d9 40 be dd 80 5d bf d6 2b c7 3e e6 3a da be
       -0.1883283 -0.86524755 0.38900632 -0.4262306
0000b0 76 58 08 bd e4 60 37 3f 20 6f 8a 3e ab f4 d1 be
       -0.033287488 0.7163222 0.27037907 -0.4100698
0000c0 42 c3 41 bd 01 1e 78 bf 25 2c 36 3e d4 14 39 bf
       -0.047305353 -0.9692078 0.17790277 -0.72297406
0000d0 0b 00 c4 be a7 d8 9f 3e 2d 28 13 be 41 a8 17 3f
       -0.38281283 0.3121998 -0.14370795 0.5924111
0000e0 dd 65 90 be 78 47 1e 3d 34 e8 51 bf e0 f9 11 3f
       -0.28202716 0.038642377 -0.8199494 0.57021904
0000f0 e1 82 1b 3f 0f a2 1c 3f 01 07 b5 3e 42 52 b7 be
       0.6074658 0.6118478 0.35356906 -0.35804945
000100 0c 6f b9 3e 0c 50 63 be 61 fc e3 be 97 41 b5 3e
       0.36217535 -0.22198504 -0.44528487 0.35401604
000110 c4 06 9b 3e 63 16 77 3d e4 1c b3 3e 5c 70 8e be
       0.302786 0.060324084 0.3498298 -0.27820098
000120 ec db 14 3f f7 d3 f3 3e 17 df 14 be d4 cb 8e be
       0.58148074 0.47622654 -0.14538227 -0.27889884
000130 99 d5 50 3d 00 0e 7b 3d c9 e0 3f 3f 2f 6a 4e bf
       0.050984953 0.06129265 0.7495237 -0.80630773
000140 21 6d 96 be e7 7a 7d be 2d 96 25 3f 59 7c c8 bd
       -0.29380134 -0.24753915 0.64682275 -0.097893424
000150 54 b6 dd bd bf 15 b3 be 41 f0 68 3e 71 d6 4f bf
       -0.10825792 -0.34977528 0.227479 -0.81186587
000160 e6 16 17 3f 2d 3c 1f 3e 2e e8 0d bf 30 6a d4 3e
       0.59019315 0.15550299 -0.55432403 0.41487265
000170 cc 89 1f 3f cd e7 da 3e ab 86 e1 be b3 22 b6 3d
       0.62319636 0.42754975 -0.44048056 0.08893337
000180 d3 46 8a 3c 47 09 ca 3e ed b5 4c 3f 11 ef 10 3e
       0.016879475 0.39460203 0.79965097 0.14153697
000190 29 cd 86 bf ae 0c f2 be 6b 82 d1 be 13 4b 68 be
       -1.053136 -0.472753 -0.40919814 -0.22684889
0001a0 fc e5 22 be 29 3d 7c bd 41 69 de 3e 78 9b 44 be
       -0.15908045 -0.061581764 0.43439677 -0.19199932
0001b0 3b b4 49 3f 37 bb 19 3f 90 78 3e 3f cf 35 19 bf
       0.78790635 0.6005129 0.74402714 -0.5984773
0001c0 55 d8 0d bf 5e a2 2e bf d0 6d 09 3f 04 4c b5 3e
       -0.5540822 -0.682165 0.53683186 0.35409558
0001d0 2a ed 31 be f5 b3 15 3e e2 26 05 3f 37 f5 da 3e
       -0.17375627 0.1461943 0.52012455 0.4276521
0001e0 4d 62 19 bf 43 b9 37 3f 3e 68 c9 3d 19 10 34 3e
       -0.5991562 0.7176706 0.09834336 0.17584266
0001f0 4e c2 28 bf 27 66 3a bf d6 cf 5a 3f c2 b3 51 be
       -0.65921485 -0.7281212 0.8547338 -0.20478728
000200 ec 9d 57 3e 9c 08 df 3e 05 75 24 be 52 d6 bd bd
       0.21056336 0.43561256 -0.16060264 -0.09269394
000210 d6 c2 29 bd a1 61 a7 3f 27 69 43 bf 9f b1 b7 3e
       -0.041445576 1.3076669 -0.76332325 0.35877702
000220 19 cb e7 be ba 44 67 be 57 98 bb be 48 e7 ad 3d
       -0.4527214 -0.22584811 -0.36639664 0.08491379
000230 e1 b7 af bf 53 e4 cb 3c 3a 24 be bc 6a 65 14 3f
       -1.372799 0.024889147 -0.023210634 0.57967246
000240 d3 15 fd 3e 63 42 a7 bd cb e7 a5 be cc f4 20 bf
       0.49430713 -0.08166959 -0.32403407 -0.6287353
000250 00 92 94 be af 3c 8f be 18 fc 11 bf 06 c2 46 3f
       -0.2901764 -0.27975985 -0.5702529 0.77639806
000260 3d 01 f8 be ab e0 77 3f f3 00 02 3f 66 5f 02 bf
       -0.48438445 0.9682719 0.507827 -0.50926816
000270 cc 0d 1c 3f 71 1d ed be d8 e7 ab bd 99 20 a7 be
       0.6095855 -0.46311525 -0.0839383 -0.32642058
000280 9b 7e 98 3d 5f 99 36 bf 4f 9f f7 bd 11 73 dc 3e
       0.07446023 -0.71327776 -0.120909326 0.4305654
000290 48 1a d5 be 21 ce e7 3e f6 8c 00 3e 45 45 35 3e
       -0.41621614 0.4527445 0.12553772 0.17702205
0002a0 c2 1d 00 3f bb f0 ee 3e 56 ab 52 be 24 65 06 be
       0.50045407 0.46668038 -0.20573172 -0.1312452
0002b0 8c bc 6a be 56 76 d1 bb 4f 10 1a 3f dd 1e 74 3f
       -0.22923487 -0.0063922806 0.60181135 0.95359594
0002c0 14 eb 2f bf 41 19 39 be 6f 74 86 3e 94 e5 15 bf
       -0.68718076 -0.1807604 0.26260707 -0.58553433
0002d0 5f c0 71 be 2f b1 18 3c 26 4d 12 bf e8 0e 17 bf
       -0.2360854 0.009319588 -0.5714897 -0.5900712
0002e0 32 e3 34 be 47 1b 24 bf b8 e3 24 3e 3a 33 2b 3e
       -0.17664793 -0.6410412 0.16102493 0.1671876
0002f0 40 4b 16 3f cd 27 cd be 5a 64 1b be b0 30 ff be
       0.5870857 -0.40069428 -0.15175 -0.49841833
000300 d1 4e 58 bf b9 b2 46 be c5 01 0a 3f b3 c8 17 be
       -0.84495264 -0.19404115 0.5390895 -0.14822654
000310 21 bd 8f be 46 8b a1 3d 84 7c af bd a4 fc 86 bf
       -0.2807398 0.078878924 -0.08568671 -1.054585
000320 65 31 72 be 97 85 43 bf 16 08 00 be 4f 43 e0 bd
       -0.23651655 -0.76375717 -0.12503085 -0.10950338
000330 fa 6c 36 bd 35 43 4e bf 2d d0 a0 3e d7 bc b3 bd
       -0.044537522 -0.805713 0.31408826 -0.08776253
000340 e9 73 92 be a8 dc ac bd 6f cb 53 3e b3 01 2a 3f
       -0.28604057 -0.08440524 0.20683073 0.6640884
000350 08 9f 6b bf 47 c3 a8 3e cf 83 fe 3e f7 ec 9b 3e
       -0.9203954 0.32961485 0.49709937 0.30454227
000360 18 42 5e bf b3 99 f9 bc fa ba 68 3e 6d 2c ad be
       -0.868196 -0.030468797 0.22727576 -0.33822957
000370 14 0f 2d 3f 54 d3 54 bd e6 2c 42 3f a6 9a 23 3a
       0.6760113 -0.05195935 0.7584976 0.0006241001
000380 ac 2b 28 bf 7a 6e 60 bf a7 79 9c bd 7c 8f e5 3e
       -0.6569164 -0.87668574 -0.07640391 0.44836032
000390 7e 3c 02 3e 7e a4 c4 3e 26 52 0f be be 14 db be
       0.12718388 0.38406748 -0.13996181 -0.42789263
0003a0 9a b0 cc 3d 27 51 c9 3d 59 9f 4b 3f f1 a4 34 3e
       0.099946216 0.09829932 0.7954002 0.17641045
0003b0 ae bf a2 3e 5a ea 04 3f 49 52 2b 3f 21 94 3c 3f
       0.31786865 0.5192009 0.6692243 0.73663527
0003c0 8a f7 bd be 02 18 b0 be 3a 5b c5 bd a5 c1 37 3d
       -0.3710292 -0.34393317 -0.09636541 0.04486241
0003d0 30 2c 22 3f d7 3f 5a 3e b0 5f e3 bd 56 3c 98 3e
       0.63348675 0.21313415 -0.11102235 0.29733533
0003e0 c4 e3 06 be 7e 07 cc 3e b8 9b 0f 3f 7c 5f c5 be
       -0.13172823 0.39849466 0.5609698 -0.3854941
0003f0 e1 cc 9f be 3e 1b fb be 80 d8 04 be b7 d5 d1 3e
       -0.31210998 -0.49044222 -0.12973213 0.40983364

network_body._body_endoder.seq_layers.0.bias f4 [128]
000000 00 00 00 00 00 00 00 00 00 00 00 00 00 00 00 00
       0.0 0.0 0.0 0.0
000010 00 00 00 00 00 00 00 00 00 00 00 00 00 00 00 00
       0.0 0.0 0.0 0.0
000020 00 00 00 00 00 00 00 00 00 00 00 00 00 00 00 00
       0.0 0.0 0.0 0.0
000030 00 00 00 00 00 00 00 00 00 00 00 00 00 00 00 00
       0.0 0.0 0.0 0.0
000040 00 00 00 00 00 00 00 00 00 00 00 00 00 00 00 00
       0.0 0.0 0.0 0.0
000050 00 00 00 00 00 00 00 00 00 00 00 00 00 00 00 00
       0.0 0.0 0.0 0.0
000060 00 00 00 00 00 00 00 00 00 00 00 00 00 00 00 00
       0.0 0.0 0.0 0.0
000070 00 00 00 00 00 00 00 00 00 00 00 00 00 00 00 00
       0.0 0.0 0.0 0.0
000080 00 00 00 00 00 00 00 00 00 00 00 00 00 00 00 00
       0.0 0.0 0.0 0.0
000090 00 00 00 00 00 00 00 00 00 00 00 00 00 00 00 00
       0.0 0.0 0.0 0.0
0000a0 00 00 00 00 00 00 00 00 00 00 00 00 00 00 00 00
       0.0 0.0 0.0 0.0
0000b0 00 00 00 00 00 00 00 00 00 00 00 00 00 00 00 00
       0.0 0.0 0.0 0.0
0000c0 00 00 00 00 00 00 00 00 00 00 00 00 00 00 00 00
       0.0 0.0 0.0 0.0
0000d0 00 00 00 00 00 00 00 00 00 00 00 00 00 00 00 00
       0.0 0.0 0.0 0.0
0000e0 00 00 00 00 00 00 00 00 00 00 00 00 00 00 00 00
       0.0 0.0 0.0 0.0
0000f0 00 00 00 00 00 00 00 00 00 00 00 00 00 00 00 00
       0.0 0.0 0.0 0.0
000100 00 00 00 00 00 00 00 00 00 00 00 00 00 00 00 00
       0.0 0.0 0.0 0.0
000110 00 00 00 00 00 00 00 00 00 00 00 00 00 00 00 00
       0.0 0.0 0.0 0.0
000120 00 00 00 00 00 00 00 00 00 00 00 00 00 00 00 00
       0.0 0.0 0.0 0.0
000130 00 00 00 00 00 00 00 00 00 00 00 00 00 00 00 00
       0.0 0.0 0.0 0.0
000140 00 00 00 00 00 00 00 00 00 00 00 00 00 00 00 00
       0.0 0.0 0.0 0.0
000150 00 00 00 00 00 00 00 00 00 00 00 00 00 00 00 00
       0.0 0.0 0.0 0.0
000160 00 00 00 00 00 00 00 00 00 00 00 00 00 00 00 00
       0.0 0.0 0.0 0.0
000170 00 00 00 00 00 00 00 00 00 00 00 00 00 00 00 00
       0.0 0.0 0.0 0.0
000180 00 00 00 00 00 00 00 00 00 00 00 00 00 00 00 00
       0.0 0.0 0.0 0.0
000190 00 00 00 00 00 00 00 00 00 00 00 00 00 00 00 00
       0.0 0.0 0.0 0.0
0001a0 00 00 00 00 00 00 00 00 00 00 00 00 00 00 00 00
       0.0 0.0 0.0 0.0
0001b0 00 00 00 00 00 00 00 00 00 00 00 00 00 00 00 00
       0.0 0.0 0.0 0.0
0001c0 00 00 00 00 00 00 00 00 00 00 00 00 00 00 00 00
       0.0 0.0 0.0 0.0
0001d0 00 00 00 00 00 00 00 00 00 00 00 00 00 00 00 00
       0.0 0.0 0.0 0.0
0001e0 00 00 00 00 00 00 00 00 00 00 00 00 00 00 00 00
       0.0 0.0 0.0 0.0
0001f0 00 00 00 00 00 00 00 00 00 00 00 00 00 00 00 00
       0.0 0.0 0.0 0.0

network_body._body_endoder.seq_layers.2.weight f4 [128, 128]
000000 50 1c cd bc 5b 07 a6 3d 51 4f ad 3c 9a c8 ab bb
       -0.025037915 0.08106872 0.021155985 -0.0052424194
000010 65 d7 c8 bd 48 cd b9 3d 07 e6 7c bd 66 03 65 3d
       -0.09806708 0.090723574 -0.06174281 0.055911444
000020 f5 5a 12 3d a8 84 90 3c d4 d9 cf 3d ac a0 05 bd
       0.035731275 0.01764138 0.10148969 -0.03262393
000030 d5 74 9e bd 0e 91 d7 3c a4 dd 27 bd b0 6c 20 be
       -0.07737128 0.026314285 -0.040982857 -0.15666461
000040 0f 48 4e 3d f6 c0 0b 3e 3d 97 db 3d 6c 10 a0 bd
       0.05036169 0.13647828 0.10722206 -0.07815632
000050 2b f6 d1 3d f7 9d 20 3e 63 80 1e bd fe 28 d1 3a
       0.10252031 0.15685259 -0.038696658 0.0015957651
000060 32 fc 55 bc 93 7d 05 3d 4a 8e f9 bd 41 f9 b9 bc
       -0.013060616 0.03259046 -0.121853426 -0.022701861
000070 f6 4b 66 3c 23 1b ea bd cc 1a 86 3d c1 40 42 3e
       0.014056196 -0.11430957 0.0654808 0.18970014
000080 1f b0 67 bc 18 f3 35 bd 25 13 eb bd 09 7f 44 bd
       -0.014141112 -0.044421285 -0.11478261 -0.047972713
000090 f8 3d 01 be 29 36 83 bd d7 b7 08 bd f9 7c bf 3d
       -0.12621295 -0.064068146 -0.03337845 0.093500085
0000a0 52 63 09 bd eb a4 59 3d d5 be 41 3e a7 8d 8d 3d
       -0.033541985 0.053135794 0.18920453 0.06911784
0000b0 32 d8 01 be c4 37 59 bd 36 c0 06 bd 0d 01 54 bd
       -0.12680128 -0.053031698 -0.03289815 -0.051758815
0000c0 09 77 41 3a 32 08 46 3e da a2 a5 3d ba d9 d3 3c
       0.00073801033 0.19339064 0.08087702 0.025860656
0000d0 2c 5a 18 3e e0 57 63 bd e1 9e 79 bc f7 5b 0a be
       0.14878148 -0.055503726 -0.015235634 -0.13511644
0000e0 76 72 a0 bd b8 80 c5 bd 1b 99 74 bd 46 9e eb 3c
       -0.07834332 -0.09643692 -0.059716325 0.028761994
0000f0 25 80 c2 3d 74 f4 de bc 8c fe 2a be 88 5e 0a 3d
       0.09497098 -0.027216174 -0.16698664 0.03378156
000100 76 93 4c 3d b7 57 35 3d c4 74 24 3e ed 5b 0a 3e
       0.049945317 0.044273105 0.16060168 0.1351163
000110 96 14 10 be 3b f0 96 bd bd 52 d7 bc 43 c0 f6 bd
       -0.14070353 -0.07370039 -0.02628457 -0.1204839
000120 76 48 35 bb fc 31 95 bd 9f c0 97 3a a5 f7 0e 3e
       -0.0027661598 -0.072849244 0.0011577791 0.13961656
000130 f0 e6 8e bc 85 07 81 3d 93 8a ea 3d 26 92 b3 3d
       -0.017444104 0.06300262 0.11452212 0.0876811
000140 b6 78 5d 3c bd e1 90 bc 73 3e 5c 3d ec 64 2d 3d
       0.013517549 -0.017685765 0.053770494 0.042332575
000150 50 b1 61 bd c8 9c 51 3d bb ee a5 bd fd 92 36 3d
       -0.05510074 0.05117491 -0.08102175 0.044573773
000160 b5 5f 21 3d 74 69 ee 3c b4 6f 88 bc 8d d2 14 bd
       0.039397914 0.029103018 -0.016654827 -0.03633361
000170 0f 5d 0b bd b3 09 8d 3d 27 ea e4 bd 8d c7 3f 3d
       -0.034024294 0.068866156 -0.111774735 0.046821166
000180 1e 5d 38 3d d9 9c 2f 3d 5a 81 0d 3e 75 e4 9f 3c
       0.04501068 0.04287419 0.13818875 0.019518116
000190 ff de 6c bd 99 8e 39 3c 93 35 51 bc 78 49 d1 bd
       -0.057829853 0.011325502 -0.012769121 -0.10219091
0001a0 af 8e 28 be a0 86 5a 3d c5 56 85 3d a3 21 11 3e
       -0.1646068 0.053351045 0.065106906 0.14172988
0001b0 b5 86 fd bd 32 0e f1 bc a0 a4 43 bd a5 f0 13 3d
       -0.12379209 -0.029425714 -0.04776442 0.03611817
0001c0 11 19 b2 3d 4f a9 1f bd e9 4a e9 3c b8 07 68 3d
       0.08696187 -0.038979825 0.028478103 0.056647986
0001d0 77 c1 b6 3d 10 f7 9e bc 1a 0a 0b 3e fa ad e8 bd
       0.08923619 -0.019404918 0.13578072 -0.113613084
0001e0 9a 7b 85 3d ba 87 97 3c cc 96 12 3c ca 19 94 3d
       0.06517716 0.018497337 0.008947086 0.072314814
0001f0 d2 09 57 3d e7 44 10 3c 72 b5 df 3d 95 b5 85 3d
       0.0524996 0.00880549 0.1092328 0.06528775
000200 9e 58 cf 3d 98 0e 10 3e 3e 08 01 bd a3 58 11 3d
       0.10124324 0.14068067 -0.031502 0.03548492
000210 07 99 86 bd a3 0b 10 3d 26 53 9f 3d e8 be 03 be
       -0.065721564 0.035167348 0.07779531 -0.12865794
000220 cb d4 e6 3d ea 45 8f bc f5 c0 b6 bc 98 5b b4 3b
       0.11271056 -0.017489392 -0.022308806 0.005504083
000230 90 00 ef 3d ba 27 d5 bd 41 87 ea 3b fa ad 95 3b
       0.11670029 -0.10407968 0.007157237 0.0045678588
000240 c0 10 3d bc 90 75 64 bb 4c 89 d5 bd 05 db 19 3e
       -0.011539638 -0.0034860112 -0.10426578 0.15024956
000250 ac c7 95 3c 39 fc b5 bd 22 c6 95 3d c7 44 1f bd
       0.018283688 -0.08885998 0.073131815 -0.03888395
000260 33 95 63 3d da fb 61 3d a3 e8 98 3d 8f 8e 4e 3e
       0.05556221 0.055171825 0.07466247 0.2017157
000270 49 f8 ea bc a7 fd 4d bd 2e c6 a6 3d 87 f8 f3 bd
       -0.028682845 -0.05029073 0.081432685 -0.11912637
000280 1a 1e 48 3d 2e 61 c1 3d f9 88 5b 3c 0f b7 83 bd
       0.048856832 0.09442364 0.013399356 -0.064314
000290 8a 62 41 bc b4 a1 ae 3c 63 fb 85 3d 5c 51 66 bd
       -0.011803279 0.02131734 0.06542089 -0.056229934
0002a0 ba 7b 08 3e b0 42 80 3d 69 30 03 bd 3c 24 95 3d
       0.13328448 0.0626272 -0.03202859 0.07282302
0002b0 fd e9 90 3c 01 7c cf 3d 1a 28 12 bc 08 f9 d3 3d
       0.0176897 0.10131074 -0.008920694 0.10350233
0002c0 ef 65 bb 3c 74 7f 26 3e 37 7e 17 be 31 ed 4d 3d
       0.022875754 0.16259557 -0.14794241 0.05027503
0002d0 0a 9d 73 bd fe bc d7 bd e9 51 29 bc ec a1 61 bd
       -0.059475936 -0.10534094 -0.01033447 -0.05508606
0002e0 2a dc 33 be c1 0e 04 bd 27 e9 33 bd 37 e0 64 bd
       -0.17564455 -0.032240633 -0.043923523 -0.05587789
0002f0 6f 12 37 3d 9b 45 35 3b b4 d4 9a 3d 71 a4 11 be
       0.044695314 0.0027659896 0.07560101 -0.14222886
000300 40 4c 44 be a2 86 98 3d ac 23 11 3e 53 0c de bd
       -0.19169712 0.07447554 0.14173764 -0.108421944
000310 e0 5e 64 bd e0 2c e2 3d 27 72 8f 3d 55 00 00 3e
       -0.055754542 0.110437155 0.07004195 0.12500127
000320 79 fc 4e 3d 74 bc 2b 3d 4d b4 e4 3c 70 1f c1 bb
       0.050533745 0.04192777 0.027918005 -0.00589364
000330 5e 6b 08 bd 83 a4 62 bc d7 bf c6 3d a7 25 13 3e
       -0.03330552 -0.013833168 0.09704559 0.14369832
000340 2a fa 94 bd a5 80 35 bd 5e c8 43 bd 60 fb 87 bd
       -0.072742775 -0.044312138 -0.047798507 -0.06639743
000350 81 47 c1 bd 9a 83 88 bc cf 11 bf 3d f9 5f 27 3d
       -0.094374664 -0.016664315 0.093295686 0.04086301
000360 31 c6 19 3e 69 1e db bc d3 ba ab bd 44 ba ec bc
       0.1501701 -0.0267479 -0.08385243 -0.028897412
000370 a5 12 a7 3d b3 8b 85 3d 7b 53 6a 3d da 52 f0 3c
       0.08157853 0.06520786 0.05720852 0.029336382
000380 02 bf 8d 3d 8b 47 e9 bd 87 7f da bc 6a 7d 04 3d
       0.069211975 -0.11390599 -0.026672138 0.032346167
000390 f7 ae e1 bc 60 0b c9 bc 72 69 96 3d 7c 2a 3e 3d
       -0.02754925 -0.024541557 0.07344331 0.046427235
0003a0 07 26 5b 3d e1 ec 40 3d bb e4 85 3d be fc b2 3d
       0.053503063 0.047100905 0.065377675 0.08739613
0003b0 86 03 a9 bd f8 87 10 bd ad 10 98 bc 4a 25 18 be
       -0.08252625 -0.03528592 -0.01856264 -0.14857975
0003c0 49 bd 8d bc f4 00 81 bd aa ff cb 3d a5 1f 3b 3e
       -0.017302172 -0.0629901 0.099608734 0.1827379
0003d0 7d d5 27 bd 1c e1 7b 3d 5b 0c 58 bd 7e 79 59 3e
       -0.040975083 0.061493978 -0.052746158 0.21237752
0003e0 78 9d cd 3d ff 9e 4c 3c 04 e2 92 3d 8c a6 ba 3c
       0.100398004 0.0124890795 0.07172015 0.022784494
0003f0 87 89 80 bc 07 5e 71 3d 6d 29 6b b9 7c 28 69 bd
       -0.015690578 0.058927562 -0.00022426779 -0.056923375

network_body._body_endoder.seq_layers.2.bias f4 [128]
000000 00 00 00 00 00 00 00 00 00 00 00 00 00 00 00 00
       0.0 0.0 0.0 0.0
000010 00 00 00 00 00 00 00 00 00 00 00 00 00 00 00 00
       0.0 0.0 0.0 0.0
000020 00 00 00 00 00 00 00 00 00 00 00 00 00 00 00 00
       0.0 0.0 0.0 0.0
000030 00 00 00 00 00 00 00 00 00 00 00 00 00 00 00 00
       0.0 0.0 0.0 0.0
000040 00 00 00 00 00 00 00 00 00 00 00 00 00 00 00 00
       0.0 0.0 0.0 0.0
000050 00 00 00 00 00 00 00 00 00 00 00 00 00 00 00 00
       0.0 0.0 0.0 0.0
000060 00 00 00 00 00 00 00 00 00 00 00 00 00 00 00 00
       0.0 0.0 0.0 0.0
000070 00 00 00 00 00 00 00 00 00 00 00 00 00 00 00 00
       0.0 0.0 0.0 0.0
000080 00 00 00 00 00 00 00 00 00 00 00 00 00 00 00 00
       0.0 0.0 0.0 0.0
000090 00 00 00 00 00 00 00 00 00 00 00 00 00 00 00 00
       0.0 0.0 0.0 0.0
0000a0 00 00 00 00 00 00 00 00 00 00 00 00 00 00 00 00
       0.0 0.0 0.0 0.0
0000b0 00 00 00 00 00 00 00 00 00 00 00 00 00 00 00 00
       0.0 0.0 0.0 0.0
0000c0 00 00 00 00 00 00 00 00 00 00 00 00 00 00 00 00
       0.0 0.0 0.0 0.0
0000d0 00 00 00 00 00 00 00 00 00 00 00 00 00 00 00 00
       0.0 0.0 0.0 0.0
0000e0 00 00 00 00 00 00 00 00 00 00 00 00 00 00 00 00
       0.0 0.0 0.0 0.0
0000f0 00 00 00 00 00 00 00 00 00 00 00 00 00 00 00 00
       0.0 0.0 0.0 0.0
000100 00 00 00 00 00 00 00 00 00 00 00 00 00 00 00 00
       0.0 0.0 0.0 0.0
000110 00 00 00 00 00 00 00 00 00 00 00 00 00 00 00 00
       0.0 0.0 0.0 0.0
000120 00 00 00 00 00 00 00 00 00 00 00 00 00 00 00 00
       0.0 0.0 0.0 0.0
000130 00 00 00 00 00 00 00 00 00 00 00 00 00 00 00 00
       0.0 0.0 0.0 0.0
000140 00 00 00 00 00 00 00 00 00 00 00 00 00 00 00 00
       0.0 0.0 0.0 0.0
000150 00 00 00 00 00 00 00 00 00 00 00 00 00 00 00 00
       0.0 0.0 0.0 0.0
000160 00 00 00 00 00 00 00 00 00 00 00 00 00 00 00 00
       0.0 0.0 0.0 0.0
000170 00 00 00 00 00 00 00 00 00 00 00 00 00 00 00 00
       0.0 0.0 0.0 0.0
000180 00 00 00 00 00 00 00 00 00 00 00 00 00 00 00 00
       0.0 0.0 0.0 0.0
000190 00 00 00 00 00 00 00 00 00 00 00 00 00 00 00 00
       0.0 0.0 0.0 0.0
0001a0 00 00 00 00 00 00 00 00 00 00 00 00 00 00 00 00
       0.0 0.0 0.0 0.0
0001b0 00 00 00 00 00 00 00 00 00 00 00 00 00 00 00 00
       0.0 0.0 0.0 0.0
0001c0 00 00 00 00 00 00 00 00 00 00 00 00 00 00 00 00
       0.0 0.0 0.0 0.0
0001d0 00 00 00 00 00 00 00 00 00 00 00 00 00 00 00 00
       0.0 0.0 0.0 0.0
0001e0 00 00 00 00 00 00 00 00 00 00 00 00 00 00 00 00
       0.0 0.0 0.0 0.0
0001f0 00 00 00 00 00 00 00 00 00 00 00 00 00 00 00 00
       0.0 0.0 0.0 0.0

action_model._continuous_distribution.log_sigma f4 [1, 2]
000000 00 00 00 00 00 00 00 00
       0.0 0.0

action_model._continuous_distribution.mu.weight f4 [2, 128]
000000 36 99 1e bd b8 49 9a bc 5a 7a 60 3c 00 ba 58 bc
       -0.038720332 -0.01883398 0.013701046 -0.01322794
000010 10 6e 38 3d 56 0a cb ba bd ff 9b bc ad 0c 76 3b
       0.04502684 -0.0015490751 -0.019042844 0.0037544176
000020 48 52 f0 bc 17 f7 24 bc 8b 9b f9 ba 0f 17 95 bb
       -0.02933611 -0.010068676 -0.0019043548 -0.004549868
000030 47 eb 89 bb f5 1c 81 bc be b2 c1 3b af 3b ae bb
       -0.0042089554 -0.015760878 0.0059112003 -0.0053171734
000040 53 f8 ac bb 0a 0b 92 3c 2b 69 32 bd 72 32 fc b9
       -0.005278626 0.01782753 -0.043557327 -0.0004810277
000050 a2 84 20 bd 4a ee 19 bd 7b 95 30 bd 19 eb c1 bc
       -0.03918899 -0.037580766 -0.043111306 -0.023671674
000060 22 b1 07 bd 66 52 03 bc 6a b4 c7 3c f3 39 0f 3d
       -0.03312791 -0.008015251 0.02437802 0.034967374
000070 32 b5 f4 3a 1f e3 0d 3c 80 00 a5 3c c3 7a c2 bb
       0.0018669723 0.008660107 0.02014184 -0.0059350445
000080 3b 00 6b 3c df b8 c2 bc 33 57 4c bc 58 70 00 3c
       0.014343317 -0.023769794 -0.012471962 0.007839285
000090 e7 6b 13 bc e9 09 12 bb 5b 62 cf 3a 6b 9b 71 bc
       -0.008997894 -0.002228374 0.0015822159 -0.014746527
0000a0 b0 fc e2 3a d3 ea 91 3c ac d6 b6 3c 95 69 ed bb
       0.0017317738 0.017812168 0.02231916 -0.0072452524
0000b0 7d 50 a9 bc 45 40 89 3c 55 93 ff bc bf df 9e 3c
       -0.020668263 0.016754279 -0.031198183 0.0193938
0000c0 4b d4 0f 3c 5c ba be bb 6e 19 21 3c 5b c4 b6 bb
       0.008778642 -0.0058205556 0.009832723 -0.0055776066
0000d0 d9 2f c5 3c 87 2c 25 3d 15 70 1f 3c 6f 31 ed bc
       0.024070667 0.040325668 0.009731312 -0.028954236
0000e0 eb 26 54 bc 18 37 75 3c bb 55 61 3c 33 33 62 bc
       -0.012948732 0.014966749 0.01375335 -0.013806152
0000f0 8d 48 75 b9 7f 7e 16 bd 65 dc 6c 3b 6b e4 84 3b
       -0.00023392048 -0.03674173 0.0036142108 0.00405555
000100 3d 15 cb bc e7 8c 01 3c 97 48 bb bc 8f 81 66 bc
       -0.0247904 0.007907129 -0.022861762 -0.014068975
000110 2b 6c bb 3c fa 4b ea bc 1a 8f 0c 3b 51 cb 03 3c
       0.022878727 -0.028600682 0.00214476 0.00804408
000120 63 1e 84 3c 60 af 78 b9 f2 02 63 3b 9a 15 36 3d
       0.01612777 -0.00023716455 0.0034639207 0.044454195
000130 24 cd 8e 3c c6 56 b7 bb df b5 b7 3b 7f 8f fc 38
       0.017431803 -0.005595061 0.0056063975 0.000120430246
000140 75 89 07 3b cc 65 10 bc 79 71 c5 bc 3b 1c 57 bc
       0.0020681296 -0.008813333 -0.02410196 -0.013129289
000150 9b f8 06 bc da 56 c1 3c 28 4a 80 3b e1 b1 97 3c
       -0.008237983 0.023600984 0.00391509 0.018517436
000160 ca 83 0e 3c f8 e3 71 3c 33 52 d2 ba a5 35 65 3c
       0.008698413 0.014763825 -0.0016046226 0.013989841
000170 54 fa c5 3c 67 85 67 bc 2d 7d d7 3c 3c 06 97 ba
       0.024167217 -0.014130927 0.026304806 -0.0011522244
000180 10 d8 ac 3b fe 3b 0c 3c 38 1e a1 3c 22 96 36 bc
       0.00527478 0.008559225 0.01966773 -0.011144193
000190 a8 6b fb bc 55 8d bb 3b d0 42 16 bb 12 f0 af 3c
       -0.030690983 0.005723635 -0.0022928007 0.02147678
0001a0 fb 0a 6b bc 87 d2 29 3c 08 b0 0e 3b 09 51 9b 3c
       -0.01434588 0.010365135 0.0021772403 0.018959539
0001b0 b6 2a 9f bb d3 c5 87 bb 17 05 cd bc 52 1a 52 3c
       -0.0048573865 -0.0041434555 -0.025026841 0.012823658
0001c0 eb 6e a2 3c 85 b8 31 3c 3f 07 eb b9 17 a9 fe bb
       0.01982828 0.010847216 -0.00044828092 -0.007771622
0001d0 23 89 58 bc 77 50 5a 3c 59 f8 28 bc 2b 71 8f 3c
       -0.01321629 0.013324848 -0.010313117 0.017510017
0001e0 2f 5c 18 bd e8 cb 59 3c 47 5c 99 3c d9 d4 a5 bc
       -0.037197288 0.013293244 0.01872076 -0.020243095
0001f0 32 db dc 3a a8 e7 a6 3b 3b 22 80 bc 9f f9 59 bc
       0.0016849993 0.0050935335 -0.015641322 -0.013304143
000200 f5 b9 66 3c 85 00 64 bb 87 8e c4 3c 82 42 e8 3c
       0.014082422 -0.0034790349 0.023993744 0.028352026
000210 5e 0e a7 3c ed eb 91 bb d6 de 2b bc 03 8f 5d ba
       0.020392593 -0.0044531734 -0.01049014 -0.00084517914
000220 c2 d6 67 3c 43 f4 91 bc ab fa ae 3c 47 fb 42 bc
       0.014150323 -0.017816668 0.021359762 -0.0119007295
000230 6b 99 15 bb 4f 72 74 3c 9b e3 c7 ba 55 c1 ec 3a
       -0.002282704 0.014919831 -0.0015250327 0.0018062989
000240 38 6d d0 3b eb b5 c5 ba 43 0d 3f 3c 57 18 e3 bc
       0.006360676 -0.0015084123 0.011660877 -0.027721567
000250 4a 77 22 bd c4 9b 05 bd f5 43 9b 3c ef 59 80 bc
       -0.039664544 -0.032619253 0.018953303 -0.015667884
000260 fa aa 98 3b 75 6f 62 bc 1f 47 73 bc 58 20 74 bc
       0.004659054 -0.013820519 -0.0148485 -0.0149002895
000270 60 b5 09 bc 36 70 07 3d 8b c5 91 3b fb 0d dd bc
       -0.00840506 0.033065997 0.004448598 -0.026984205
000280 2a e2 a4 3a 7a 83 ad bc 5c d2 19 bc 9b 22 0d bc
       0.0012579609 -0.021180857 -0.0093885325 -0.008614208
000290 25 25 69 3c c0 6c bf b9 1d ea 3b bc cf 2a 41 3c
       0.014230047 -0.00036511384 -0.011469391 0.0117899915
0002a0 1c 03 45 3b b8 19 93 bb d3 09 a1 3b 6f 22 e7 3c
       0.0030061668 -0.00448915 0.004914501 0.028214661
0002b0 77 9c 42 3b 27 33 9a 3c 50 e4 ce 3b 18 89 dc bc
       0.002969531 0.01882322 0.006313838 -0.02692084
0002c0 1d 1c 24 3d fe cb 0f bd bc 14 ac bc 02 e1 76 bc
       0.040065873 -0.03510665 -0.02100598 -0.0150682945
0002d0 8f a6 8d 3c 39 c6 04 3d 73 3b e0 3c 69 8a 3b 3c
       0.017291335 0.032415602 0.027372098 0.011446574
0002e0 9a af 3a bc b7 5e f6 bb c7 cf 2f bb f7 6e 0f ba
       -0.011394406 -0.007518615 -0.0026826726 -0.0005471552
0002f0 cd d1 b4 bb a3 79 88 bc 9b 03 43 bc a3 d9 ae ba
       -0.0055181743 -0.016659563 -0.011902715 -0.0013340007
000300 6b 6d f4 bb 98 ba e3 3c 1b 7b 9e 3b 7a 45 a4 bc
       -0.0074593327 0.027798936 0.0048364527 -0.02005266
000310 b7 5d bd bc 5b 66 ba bc 90 18 a7 bc f3 50 73 3d
       -0.023115976 -0.022753885 -0.020397455 0.05940337
000320 21 18 97 3c e8 0b ec 3b d5 18 76 bc fb ab f8 bc
       0.018444123 0.007203568 -0.015020569 -0.030355444
000330 cb 86 ac bc 53 06 95 3c 25 b2 5e bb 79 3d c1 bc
       -0.021060368 0.018191492 -0.0033980694 -0.023588883
000340 32 2e 47 3c c7 20 62 bc de 40 8c 3c 98 25 1b bc
       0.01215701 -0.01380176 0.017120775 -0.009469412
000350 77 55 0c bc 83 e2 68 bc 85 43 f9 3a 8a 4c 46 3a
       -0.008565298 -0.014214161 0.0019017315 0.0007564506
000360 3d cb 68 3c e7 06 34 bc d3 30 79 bc ef 49 c1 bc
       0.014208612 -0.010987974 -0.0152093945 -0.023594825
000370 31 f8 83 3c cf 4b 46 3c 76 1b 00 3c 93 a5 2d bd
       0.016109558 0.012103035 0.007819047 -0.042394232
000380 50 0e 88 3c 88 e7 ab bc 22 94 d6 3a 1b a5 e2 bb
       0.016608387 -0.020984426 0.0016371051 -0.0069166548
000390 9d 85 72 3c 8d 23 98 bc 8b 91 81 3b 2d 64 f1 3b
       0.014802364 -0.01857164 0.0039541177 0.007366678
0003a0 93 43 b3 bb e3 d0 2d 3d 3f 1f d3 3b 24 40 a9 bc
       -0.005470702 0.042435538 0.006442934 -0.020660467
0003b0 4c 66 92 3b 03 cc 3a 3d 63 f4 5e bc 12 20 bd 3a
       0.004467761 0.045604717 -0.013608071 0.0014429113
0003c0 4f ac 86 3b f7 74 2e bd 80 9a 70 3c 03 05 eb 3b
       0.0041098963 -0.042592015 0.014685273 0.0071722283
0003d0 cb c6 78 bc 8d c7 ca bc 1a 7d 8d bb af 10 97 3c
       -0.015184115 -0.024753356 -0.004317892 0.018440573
0003e0 1c 32 8c 3b 32 0b 06 bb ee 56 9d bc b0 81 7d bc
       0.0042784344 -0.002045345 -0.01920649 -0.015472814
0003f0 02 0f 28 bc b8 5b ce 3a bb c4 c7 3c 72 10 8c b9
       -0.010257484 0.0015743887 0.0243858 -0.00026715134

action_model._continuous_distribution.mu.bias f4 [2]
000000 00 00 00 00 00 00 00 00
       0.0 0.0
