results/ppo/MoveToGoal.onnx (onnx, 72644 bytes, 7 tensors)

network_body._body_endoder.seq_layers.0.weight f4 [128, 6]
000000 ad 18 c4 3e 6c 5a 54 be 7e 52 09 3f 7d 80 11 be
       0.38300076 -0.20737618 0.536415 -0.1420917
000010 55 dd 83 be 73 db 2a bf 19 68 2f bf 3c 3b 06 bf
       -0.257548 -0.667411 -0.68518215 -0.52434134
000020 50 48 c4 3c a9 75 82 3f 70 23 c7 3e a0 23 67 bf
       0.023960263 1.0192157 0.38894224 -0.90288734
000030 e2 91 a1 be cd a0 f4 be 21 be 6b bf 6a 82 d5 3c
       -0.31556612 -0.4777893 -0.9208699 0.026063163
000040 ad e1 47 3e eb 1e 79 3e d5 5a 26 bc c1 18 5c 3d
       0.19519682 0.243282 -0.010153492 0.053734545
000050 37 de fb be 05 2a e5 3e ba 25 0b 3f b7 22 21 3e
       -0.49192974 0.4475862 0.5435444 0.15735899
000060 de c7 19 bf c3 13 1f 3e 6b 26 9a be 67 3a 17 bf
       -0.600706 0.15534882 -0.30107436 -0.5907349
000070 ac 09 be be 63 b3 69 3e ec ca 4b 3d d7 3a 6d 3e
       -0.37116754 0.22822337 0.04975407 0.23166977
000080 ce a7 14 be 48 30 00 bf a9 63 f0 3e 50 d7 d6 bd
       -0.14517137 -0.5007367 0.46951035 -0.10490286
000090 ac c8 b2 be 9b 23 53 3d dd ff 01 bf ca 69 e1 3d
       -0.34918725 0.051547628 -0.5078104 0.11006506
0000a0 a0 d4 fb 3d a1 8a 2e 3f 1d 39 b9 3e 63 85 b4 bb
       0.122964144 0.6818028 0.36176386 -0.005509065
0000b0 b3 b8 60 3f e4 fa 15 3e b8 59 c7 bd 5c 6b 2a 3e
       0.8778183 0.14646488 -0.09733909 0.16642517
0000c0 22 c6 cf 3e 00 ce 39 3f 61 1e 2d 3f fc 7d a5 3c
       0.4058085 0.72579956 0.6762448 0.020201676
0000d0 54 33 1e 3e 77 4a 41 3e 10 33 03 bf 37 03 84 3e
       0.15449268 0.18876062 -0.5124979 0.25783703
0000e0 f8 b7 16 3d eb 17 91 be 73 e5 6f bf ac ae 80 bd
       0.03679654 -0.2833856 -0.93709487 -0.06283316
0000f0 77 24 95 be 43 5b a1 3e bd f8 4b bf 7f a2 a0 be
       -0.29129383 0.3151494 -0.7967642 -0.31373975
000100 fd 1c 67 3e ab 6f e5 3c 68 dd 8f bf ec d6 82 be
       0.22569652 0.028007349 -1.1239443 -0.25554597
000110 2a 4f 82 bd 6a b8 88 3e 91 01 c8 3d b0 c0 89 be
       -0.063627556 0.26703197 0.09765924 -0.2690482
000120 af 00 b2 bd ae 23 6a be ad 02 cd 3d 42 ae 30 3e
       -0.08691537 -0.22865173 0.10010276 0.17253974
000130 3a 2a a3 3e 91 48 ff be 03 40 3a bd b1 6f 44 bf
       0.31868154 -0.4986005 -0.045471203 -0.7673293
000140 9a 8e 3c be 5b c4 ae 3e 9a 48 0e 3f 46 47 95 be
       -0.18413773 0.34134182 0.5557953 -0.2915594
000150 7c 04 a3 bc 8e 9f 13 3e 12 9e 71 3e cf 36 2d bf
       -0.0198996 0.14416334 0.23595455 -0.67661756
000160 4d 7a b4 be 96 22 cf bd f2 8a 66 be 60 38 5b bf
       -0.35249558 -0.101140186 -0.22513941 -0.85632896
000170 ff 37 ac 3d a1 b2 ef 3e a9 c4 3c 3f 80 d4 38 3b
       0.08409118 0.4681597 0.7373758 0.0028202832
000180 a9 c6 fe be 9b bf b8 3c 0c 08 a5 be 52 70 98 3e
       -0.4976094 0.022552302 -0.32232702 0.29773194
000190 15 62 1f be a5 de 9b 3e 46 a8 77 be 39 ea a6 3e
       -0.15564759 0.30443302 -0.24185285 0.32600573
0001a0 78 b4 6c be a2 2a 65 be c3 b7 f7 3e 43 6e 10 3f
       -0.23115718 -0.22379544 0.48382387 0.56418246
0001b0 2e 3e 6b 3f e9 2f 49 bf ff b6 cf 3c 2c 77 d8 be
       0.91891754 -0.7858873 0.025355814 -0.4227842
0001c0 58 62 db 3d dd ca 22 3f 1e 26 30 3e 22 13 5a bd
       0.10712117 0.63590795 0.1720204 -0.053240903
0001d0 2a 78 27 be 80 41 29 3e b8 fb 10 3f e7 a1 f0 bd
       -0.16354433 0.16528893 0.5663409 -0.117496304
0001e0 b2 b2 0c be 92 4e 4a bd d0 23 b8 be 70 e0 87 be
       -0.13740042 -0.049391337 -0.35964823 -0.2653842
0001f0 40 c9 c3 3d 70 60 25 be 8c 49 ec be 80 75 06 bf
       0.0955987 -0.16150069 -0.46149862 -0.5252304
000200 e5 61 32 bf 4e 7f 6d bd b3 0d 14 3d a7 b4 c5 be
       -0.69680625 -0.057982735 0.036145877 -0.3861439
000210 7d ca a3 3d 48 61 91 3f 4b ec 89 3c ce d1 30 be
       0.07997606 1.1357813 0.016836306 -0.17267534
000220 4e 61 c2 3c a6 02 91 bf 79 4c 9f 3e 33 de 09 bf
       0.02372804 -1.1328933 0.31113032 -0.53854674
000230 e4 39 94 3f f0 40 7b be f3 72 99 3e 78 f4 87 3e
       1.1580167 -0.2453649 0.29970512 0.26553702
000240 0d d7 84 3d de c3 07 bd 36 d2 bb bd 2c 8d 61 be
       0.0648633 -0.033145778 -0.09170954 -0.22026509
000250 86 c4 32 bf 8d 3c 16 3e 1d a3 70 bf 1d 73 d7 be
       -0.6983112 0.14671536 -0.9399889 -0.42080012
000260 dd e8 4e 3e b5 fd 7b 3e 75 39 3f be 8c 75 06 3f
       0.20206018 0.246085 -0.18674262 0.5252311
000270 5e c1 4e be 2b 55 33 be cd a8 12 be 27 40 69 bc
       -0.20190951 -0.17512958 -0.14322205 -0.0142364865
000280 de c9 c3 be 03 c8 95 be f9 7b 33 3f cf 2b d3 3d
       -0.3823995 -0.2925416 0.7011104 0.1031109
000290 bc c1 15 bf 7e 1c 82 3e 3e 0b 7c 3e 09 0b 8f 3e
       -0.5849874 0.25412363 0.24613664 0.27938107
0002a0 5f c5 d5 3d 41 07 1b bf 5e e7 aa 3e 43 31 f5 3e
       0.10438036 -0.60557944 0.33379644 0.47889146
0002b0 9c 75 94 be 13 26 13 bf 3f 6b 1d 3f 3a 6d c8 be
       -0.2899598 -0.5747997 0.6149177 -0.39145833
0002c0 d8 7d 52 bf c4 19 c8 bd e4 78 14 bf 2a 29 80 be
       -0.8222327 -0.097705394 -0.57996964 -0.25031406
0002d0 8e 0d 5d be d6 f4 86 3d 01 73 c5 be ed dd 19 bd
       -0.21587202 0.065896675 -0.38564304 -0.03756516
0002e0 ea 9a bc 3e 04 05 3b 3e ad c9 a1 be fa 17 75 be
       0.3683694 0.18263632 -0.3159918 -0.23934928
0002f0 af a0 86 be 0c 23 f4 3e 85 1d a1 3e 78 bb b1 3e
       -0.26294467 0.4768299 0.31467834 0.3471334
000300 a1 35 56 3f 75 48 eb 3e b5 a8 4b 3f ec 90 cd 3a
       0.8367558 0.45953718 0.795543 0.0015683449
000310 34 bf 7f be d3 e2 a5 3c 83 d3 f1 be 46 c9 01 3b
       -0.24975282 0.02024976 -0.47231683 0.0019803806
000320 ad a0 5a 3e dd c3 bc be 73 4e 0c bf e9 40 f2 3d
       0.21350355 -0.36868182 -0.54807204 0.11828787
000330 04 05 16 be cd 18 16 3f 5a b2 3d bf ed 08 01 3f
       -0.14650351 0.58631593 -0.7410027 0.50404245
000340 e5 3e dc 3e eb 6a 05 bd 19 a2 27 bf 27 19 6f 3e
       0.43016735 -0.032572668 -0.65481716 0.23349439
000350 0d 11 96 3f 19 0d 12 bf 03 8b fa bd 25 b9 53 be
       1.1723953 -0.57051235 -0.12233546 -0.20676096
000360 0f 15 13 3f 78 1c cc 3e ea d4 47 be 22 1c 0e 3f
       0.5745401 0.3986547 -0.19514814 0.5551168
000370 0f 5b 91 3f 4f b8 bd 3c 75 8d ed bc 70 7f 27 bf
       1.1355914 0.023159174 -0.028998116 -0.6542883
000380 bd ee 05 3e 7a ac ad bd bb e1 41 be e8 7d 5b 3f
       0.13079353 -0.08480163 -0.18933766 0.8573899
000390 f7 64 e8 be 15 1a b3 bd ad 9c 60 3e c4 ca df be
       -0.4538953 -0.08745209 0.21934767 -0.43709385
0003a0 d5 20 d2 3d 7c 7a 4b bf 3d 62 8b 3e 65 93 cf 3c
       0.102601685 -0.7948377 0.27223387 0.025338838
0003b0 f5 66 39 be 56 db c9 3e 1c 52 d4 be 2d 45 9f 3e
       -0.18105681 0.39425153 -0.41468894 0.31107464
0003c0 66 39 1b bf d8 70 5f 3f bb 64 4c bd ed a3 62 be
       -0.6063446 0.8728156 -0.04990075 -0.22132845
0003d0 97 ac 4b 3f 27 f4 0b 3f 06 a6 83 be bb 36 be 3e
       0.79560226 0.5466942 -0.25712603 0.3715113
0003e0 d0 cf 92 3e 30 40 8f 3e 57 83 84 3e 8c 0f 56 3e
       0.28674173 0.2797866 0.25881454 0.20904368
0003f0 e1 6c d9 be ba 88 97 3c a0 5e 80 be f3 bb 41 bf
       -0.4246588 0.018497813 -0.25072193 -0.7567741

network_body._body_endoder.seq_layers.0.bias f4 [128]
000000 00 00 00 00 00 00 00 00 00 00 00 00 00 00 00 00
       0.0 0.0 0.0 0.0
000010 00 00 00 00 00 00 00 00 00 00 00 00 00 00 00 00
       0.0 0.0 0.0 0.0
000020 00 00 00 00 00 00 00 00 00 00 00 00 00 00 00 00
       0.0 0.0 0.0 0.0
000030 00 00 00 00 00 00 00 00 00 00 00 00 00 00 00 00
       0.0 0.0 0.0 0.0
000040 00 00 00 00 00 00 00 00 00 00 00 00 00 00 00 00
       0.0 0.0 0.0 0.0
000050 00 00 00 00 00 00 00 00 00 00 00 00 00 00 00 00
       0.0 0.0 0.0 0.0
000060 00 00 00 00 00 00 00 00 00 00 00 00 00 00 00 00
       0.0 0.0 0.0 0.0
000070 00 00 00 00 00 00 00 00 00 00 00 00 00 00 00 00
       0.0 0.0 0.0 0.0
000080 00 00 00 00 00 00 00 00 00 00 00 00 00 00 00 00
       0.0 0.0 0.0 0.0
000090 00 00 00 00 00 00 00 00 00 00 00 00 00 00 00 00
       0.0 0.0 0.0 0.0
0000a0 00 00 00 00 00 00 00 00 00 00 00 00 00 00 00 00
       0.0 0.0 0.0 0.0
0000b0 00 00 00 00 00 00 00 00 00 00 00 00 00 00 00 00
       0.0 0.0 0.0 0.0
0000c0 00 00 00 00 00 00 00 00 00 00 00 00 00 00 00 00
       0.0 0.0 0.0 0.0
0000d0 00 00 00 00 00 00 00 00 00 00 00 00 00 00 00 00
       0.0 0.0 0.0 0.0
0000e0 00 00 00 00 00 00 00 00 00 00 00 00 00 00 00 00
       0.0 0.0 0.0 0.0
0000f0 00 00 00 00 00 00 00 00 00 00 00 00 00 00 00 00
       0.0 0.0 0.0 0.0
000100 00 00 00 00 00 00 00 00 00 00 00 00 00 00 00 00
       0.0 0.0 0.0 0.0
000110 00 00 00 00 00 00 00 00 00 00 00 00 00 00 00 00
       0.0 0.0 0.0 0.0
000120 00 00 00 00 00 00 00 00 00 00 00 00 00 00 00 00
       0.0 0.0 0.0 0.0
000130 00 00 00 00 00 00 00 00 00 00 00 00 00 00 00 00
       0.0 0.0 0.0 0.0
000140 00 00 00 00 00 00 00 00 00 00 00 00 00 00 00 00
       0.0 0.0 0.0 0.0
000150 00 00 00 00 00 00 00 00 00 00 00 00 00 00 00 00
       0.0 0.0 0.0 0.0
000160 00 00 00 00 00 00 00 00 00 00 00 00 00 00 00 00
       0.0 0.0 0.0 0.0
000170 00 00 00 00 00 00 00 00 00 00 00 00 00 00 00 00
       0.0 0.0 0.0 0.0
000180 00 00 00 00 00 00 00 00 00 00 00 00 00 00 00 00
       0.0 0.0 0.0 0.0
000190 00 00 00 00 00 00 00 00 00 00 00 00 00 00 00 00
       0.0 0.0 0.0 0.0
0001a0 00 00 00 00 00 00 00 00 00 00 00 00 00 00 00 00
       0.0 0.0 0.0 0.0
0001b0 00 00 00 00 00 00 00 00 00 00 00 00 00 00 00 00
       0.0 0.0 0.0 0.0
0001c0 00 00 00 00 00 00 00 00 00 00 00 00 00 00 00 00
       0.0 0.0 0.0 0.0
0001d0 00 00 00 00 00 00 00 00 00 00 00 00 00 00 00 00
       0.0 0.0 0.0 0.0
0001e0 00 00 00 00 00 00 00 00 00 00 00 00 00 00 00 00
       0.0 0.0 0.0 0.0
0001f0 00 00 00 00 00 00 00 00 00 00 00 00 00 00 00 00
       0.0 0.0 0.0 0.0

network_body._body_endoder.seq_layers.2.weight f4 [128, 128]
000000 61 59 69 3d 31 a5 07 be 6c 68 13 bd 7e 13 94 3d
       0.056970004 -0.1324661 -0.035988256 0.0723028
000010 05 d3 21 be cd 00 f1 3d ee 26 93 bd 7c 0c a7 3d
       -0.15803154 0.11767731 -0.071851596 0.08156678
000020 c4 7c 18 3e ff 3a 32 3c f4 ca ee bc 1b 36 30 bd
       0.14891344 0.010878324 -0.02914951 -0.04302035
000030 c0 7f 50 bd 4f 76 4f 3d f1 7f ba 3c 61 1e a2 bd
       -0.050903082 0.050649937 0.022766085 -0.079159506
000040 10 e8 41 bd 0f c0 ad bd 2f fb 3a be 5c d1 ae bd
       -0.047340453 -0.08483898 -0.18259881 -0.08536026
000050 8a 7e 85 bd 35 24 51 3d fa 8d bb bd e3 63 ef bd
       -0.06518276 0.05105992 -0.09157939 -0.11688974
000060 1a df 5a bd 69 ad 5b 3e 7c e5 4a 3d 3d 7e 80 3d
       -0.053435422 0.2145287 0.04953526 0.06274078
000070 3c 9e ea bd 89 05 d9 3d e9 b6 ec 3d 93 80 9d bd
       -0.11455962 0.10596759 0.11558325 -0.07690539
000080 50 3e 8e bd c6 95 c8 bd 0c de 58 bd f3 38 44 3c
       -0.06945479 -0.09794192 -0.052946135 0.011976468
000090 4a 18 6e 3d 70 2a cf bd 22 f5 33 3e 26 de 37 bd
       0.058128633 -0.10115516 0.1757398 -0.04488959
0000a0 ef 3d 9d bb 9c 67 a7 3b 4b 0b 88 bd 52 53 0b 3e
       -0.004798643 0.0051087867 -0.06642779 0.13606003
0000b0 68 52 00 bd c1 5b 36 3e 56 da 13 3e 54 ba 12 3d
       -0.03132859 0.17808439 0.14438757 0.035822228
0000c0 dd 96 00 be 1e 33 f8 bc f4 03 59 bd 8a bf 53 3d
       -0.1255755 -0.030297812 -0.052982286 0.051696338
0000d0 98 d1 e7 bd a9 53 9e bd 23 be 52 3c a4 4f 4f 3d
       -0.11319274 -0.07730801 0.012862715 0.05061306
0000e0 44 b8 72 3d e7 32 42 3c d0 8e 18 3d 47 5a 04 3d
       0.05925776 0.011852956 0.03724557 0.032312658
0000f0 06 7c a9 bd 13 b2 cc bd 07 b3 1c 3c 62 1b 12 3e
       -0.08275609 -0.099949025 0.009564168 0.14268258
000100 0d ab eb bc 4b c6 11 3c 01 26 8b bd ba 8c cb 3c
       -0.028768087 0.008897374 -0.06794358 0.024847377
000110 c5 15 5a bd 11 dc b8 bd 51 1c f3 3a 12 eb e2 3d
       -0.053243417 -0.09026349 0.0018547868 0.11079992
000120 ab a6 e8 bc 44 2f 0c 3e 82 39 1d bd 55 e0 10 3d
       -0.028399786 0.13689905 -0.03838492 0.03537019
000130 98 9c 1f 3e 2e 95 57 3d b3 df 87 bb 2d 57 2c bd
       0.1558708 0.052632503 -0.00414654 -0.042075325
000140 5f 72 4f 3d 48 ad 2d be e2 72 b9 bc c7 3d b7 bd
       0.050646182 -0.16960633 -0.022637788 -0.0894733
000150 0e 73 e1 bd 6e 4c 3a be a3 00 c1 3c bf c0 2b 3d
       -0.11008273 -0.18193218 0.023559874 0.041931864
000160 18 b1 91 bc 8a 43 5c 3c 11 c5 11 be 17 b7 22 bd
       -0.01778464 0.013443837 -0.14235331 -0.03972539
000170 ec 36 ef 3d 28 af de bd d6 b6 99 bd 2c 68 81 3d
       0.116803974 -0.10873252 -0.07505576 0.06318697
000180 dd 41 d8 3a 88 e0 a5 3d 76 06 7f bd bc de 8f 3d
       0.0016499121 0.080994666 -0.06226202 0.07024905
000190 be c0 dd bd e7 ee 00 3e e8 2c de bc a4 eb f0 bc
       -0.10827778 0.12591134 -0.027121022 -0.029409237
0001a0 e2 48 33 bc f2 7e 47 3c f5 a4 87 3d 37 8c 9c 3d
       -0.01094267 0.012176262 0.0662326 0.07643931
0001b0 de 96 dd bd 21 b1 f3 bd 7e 73 d1 3b aa 2b b1 bd
       -0.10819791 -0.11899019 0.0063919416 -0.086509064
0001c0 f4 b2 b2 3d 38 5e 1b 3b 7d a8 8b ba 10 cf 98 3d
       0.08725539 0.0023707282 -0.0010655072 0.07461369
0001d0 99 b9 8f 3d 74 2b 38 bd b8 8f a4 3c 73 83 8a 3d
       0.07017822 -0.044963315 0.020088062 0.06763353
0001e0 88 69 34 3c 4e 87 f1 3d 4a 8e 30 ba 95 f9 be bc
       0.011011489 0.117933854 -0.000673507 -0.02331237
0001f0 e9 94 ac bd 8f 30 f1 3c ae 25 30 bc 69 34 14 3c
       -0.0842684 0.0294421 -0.010751171 0.009045699
000200 cc a0 1b 3d c8 4c cf 3c ad ca cc 3c 90 ed e2 bd
       0.037995145 0.025305167 0.024998987 -0.11080468
000210 e5 e1 a7 3d 82 f2 b6 bd 78 0c 96 bd ba e4 88 3c
       0.08197383 -0.089329734 -0.07326597 0.016710628
000220 84 de 80 3c 7b 5d 46 3c ae a1 1f 3d b5 03 3e ba
       0.015731104 0.012107248 0.03897255 -0.0007248477
000230 2a 0c c4 bb e6 6b f2 3c a0 e3 1d 3c 6e 82 39 bd
       -0.0059828954 0.029592466 0.00963679 -0.045290403
000240 d0 ec 00 3e 1c 7f 5e bd 84 4d 90 3d 75 c1 cf bd
       0.12590337 -0.05432044 0.07046035 -0.10144321
000250 b0 fa d0 3d 07 d0 c7 bd eb e1 a1 3d db 97 08 3a
       0.10204065 -0.09756475 0.079044186 0.00052106165
000260 df 58 a9 3c 4d 58 b8 bd 0d cd 51 bd ce 5b 7c 3c
       0.02067226 -0.09001217 -0.051220942 0.015402747
000270 e9 38 4e be ed 0c c7 3d ec 57 0a 3d 7a e6 29 be
       -0.20138897 0.09719262 0.033775255 -0.16591826
000280 47 cc 78 3d 4a 5e 0b bd 68 5f d2 3d 9e bb 9f 3d
       0.06074169 -0.034025468 0.102721035 0.07799457
000290 8a 32 02 3e 98 42 76 bd 74 c0 2e bb df d3 4a bd
       0.12714592 -0.060122102 -0.0026665004 -0.049518462
0002a0 fd 41 3d 3d c4 3f ec bd b3 8c 37 3d 37 40 d4 3a
       0.04620551 -0.115356 0.044811916 0.0016193454
0002b0 14 35 5e 3d c0 9f 1d 3e df e4 0c bd db b9 ce bd
       0.054249838 0.15392971 -0.034397956 -0.10094043
0002c0 7d fc a1 bb 62 28 9c 3d 4d 91 e6 bc 9f e5 78 bd
       -0.004943429 0.0762489 -0.028145457 -0.06076586
0002d0 e6 69 a1 bb d3 ff 05 bd 3e 6b 8a 3e 67 19 77 bd
       -0.004925954 -0.032714676 0.27034944 -0.06032696
0002e0 fa 6c df bb bc f9 f4 3c ea ce 9f bd c7 3a 9a bc
       -0.006818411 0.029904239 -0.078031376 -0.018826855
0002f0 32 24 ad bc 2a 0d bc bd a0 4f 42 3e 05 3c 08 be
       -0.021135423 -0.09182198 0.18975687 -0.13304146
000300 50 e7 4a bd a4 3d 54 bc 87 57 d3 3b 0e 7c 56 be
       -0.049537003 -0.012954149 0.006449643 -0.2094576
000310 0f a0 aa bd e5 09 2b 3d b8 bd 05 3c 3c fa 19 be
       -0.0833131 0.041757483 0.008162908 -0.15036863
000320 72 3e a9 bd ae 6e fe 3c cf 24 15 3c c6 7d 50 bd
       -0.082638636 0.031058636 0.009103014 -0.050901197
000330 ee d9 7a 3c 23 60 48 bc 09 86 05 3e 7c 03 dc bb
       0.015310748 -0.012229952 0.13039412 -0.0067142826
000340 0a a5 38 bd 68 62 6b 3c 12 14 bb bc 3e af 3d bd
       -0.04507927 0.014366724 -0.022836719 -0.046309702
000350 41 52 ad bb eb 55 d5 bd c6 0a cd 3c a0 ca 02 be
       -0.0052893464 -0.10416778 0.025029551 -0.12772608
000360 fe a2 df bd 91 76 15 be 3b 14 32 3d bf 14 59 3e
       -0.1091976 -0.1459601 0.043476325 0.2119932
000370 55 ce dc 3d cc 67 a0 3c 6d f6 13 bc 70 4a 94 bd
       0.10781542 0.019580744 -0.00903092 -0.0724076
000380 5e 08 a2 bd 03 83 16 3d 24 15 a5 3d fb f6 05 bc
       -0.07911752 0.036746036 0.08060673 -0.0081765605
000390 7d 01 5a bd 44 ee 25 3d 69 0f 29 3e bb 0f bf bd
       -0.053224076 0.04051043 0.16509785 -0.09329172
0003a0 fd 9b 45 3d ad db d8 bd 09 92 96 bd be 9e bd 3c
       0.048244465 -0.10588775 -0.07352073 0.023146983
0003b0 37 34 c7 3d 9d d2 5a bd ed f0 ae 3d af fd 0d 3c
       0.09726756 -0.053423513 0.08542047 0.00866644
0003c0 cc 2e 53 3c b0 7a 86 3d b8 79 98 3a f3 26 22 3d
       0.012889575 0.065663695 0.0011632955 0.039587926
0003d0 f5 b2 91 3d 93 d2 0a 3d 53 a7 f9 3d bc 4f 10 be
       0.071142115 0.033892225 0.12190118 -0.14092916
0003e0 1e 00 6b be 1d bf 7b 3c 06 22 5e bd 87 06 46 3e
       -0.22949263 0.015365389 -0.054231666 0.19338427
0003f0 16 39 a9 bc 2f 82 47 bd 6b a5 b7 bd 87 c5 18 3e
       -0.020657104 -0.048708137 -0.08967098 0.149191

network_body._body_endoder.seq_layers.2.bias f4 [128]
000000 00 00 00 00 00 00 00 00 00 00 00 00 00 00 00 00
       0.0 0.0 0.0 0.0
000010 00 00 00 00 00 00 00 00 00 00 00 00 00 00 00 00
       0.0 0.0 0.0 0.0
000020 00 00 00 00 00 00 00 00 00 00 00 00 00 00 00 00
       0.0 0.0 0.0 0.0
000030 00 00 00 00 00 00 00 00 00 00 00 00 00 00 00 00
       0.0 0.0 0.0 0.0
000040 00 00 00 00 00 00 00 00 00 00 00 00 00 00 00 00
       0.0 0.0 0.0 0.0
000050 00 00 00 00 00 00 00 00 00 00 00 00 00 00 00 00
       0.0 0.0 0.0 0.0
000060 00 00 00 00 00 00 00 00 00 00 00 00 00 00 00 00
       0.0 0.0 0.0 0.0
000070 00 00 00 00 00 00 00 00 00 00 00 00 00 00 00 00
       0.0 0.0 0.0 0.0
000080 00 00 00 00 00 00 00 00 00 00 00 00 00 00 00 00
       0.0 0.0 0.0 0.0
000090 00 00 00 00 00 00 00 00 00 00 00 00 00 00 00 00
       0.0 0.0 0.0 0.0
0000a0 00 00 00 00 00 00 00 00 00 00 00 00 00 00 00 00
       0.0 0.0 0.0 0.0
0000b0 00 00 00 00 00 00 00 00 00 00 00 00 00 00 00 00
       0.0 0.0 0.0 0.0
0000c0 00 00 00 00 00 00 00 00 00 00 00 00 00 00 00 00
       0.0 0.0 0.0 0.0
0000d0 00 00 00 00 00 00 00 00 00 00 00 00 00 00 00 00
       0.0 0.0 0.0 0.0
0000e0 00 00 00 00 00 00 00 00 00 00 00 00 00 00 00 00
       0.0 0.0 0.0 0.0
0000f0 00 00 00 00 00 00 00 00 00 00 00 00 00 00 00 00
       0.0 0.0 0.0 0.0
000100 00 00 00 00 00 00 00 00 00 00 00 00 00 00 00 00
       0.0 0.0 0.0 0.0
000110 00 00 00 00 00 00 00 00 00 00 00 00 00 00 00 00
       0.0 0.0 0.0 0.0
000120 00 00 00 00 00 00 00 00 00 00 00 00 00 00 00 00
       0.0 0.0 0.0 0.0
000130 00 00 00 00 00 00 00 00 00 00 00 00 00 00 00 00
       0.0 0.0 0.0 0.0
000140 00 00 00 00 00 00 00 00 00 00 00 00 00 00 00 00
       0.0 0.0 0.0 0.0
000150 00 00 00 00 00 00 00 00 00 00 00 00 00 00 00 00
       0.0 0.0 0.0 0.0
000160 00 00 00 00 00 00 00 00 00 00 00 00 00 00 00 00
       0.0 0.0 0.0 0.0
000170 00 00 00 00 00 00 00 00 00 00 00 00 00 00 00 00
       0.0 0.0 0.0 0.0
000180 00 00 00 00 00 00 00 00 00 00 00 00 00 00 00 00
       0.0 0.0 0.0 0.0
000190 00 00 00 00 00 00 00 00 00 00 00 00 00 00 00 00
       0.0 0.0 0.0 0.0
0001a0 00 00 00 00 00 00 00 00 00 00 00 00 00 00 00 00
       0.0 0.0 0.0 0.0
0001b0 00 00 00 00 00 00 00 00 00 00 00 00 00 00 00 00
       0.0 0.0 0.0 0.0
0001c0 00 00 00 00 00 00 00 00 00 00 00 00 00 00 00 00
       0.0 0.0 0.0 0.0
0001d0 00 00 00 00 00 00 00 00 00 00 00 00 00 00 00 00
       0.0 0.0 0.0 0.0
0001e0 00 00 00 00 00 00 00 00 00 00 00 00 00 00 00 00
       0.0 0.0 0.0 0.0
0001f0 00 00 00 00 00 00 00 00 00 00 00 00 00 00 00 00
       0.0 0.0 0.0 0.0

action_model._continuous_distribution.log_sigma f4 [1, 2]
000000 00 00 00 00 00 00 00 00
       0.0 0.0

action_model._continuous_distribution.mu.weight f4 [2, 128]
000000 23 1b 08 3c 25 72 4d bc 15 db 55 bc f0 32 89 bb
       0.008307251 -0.012539421 -0.0130527215 -0.0041869804
000010 63 28 cf bc 72 b8 96 3c 47 e3 6f bb fa f2 c4 3c
       -0.025287813 0.018398497 -0.0036603974 0.024041642
000020 73 4a 77 bc ec dd b5 bb 7a 3a 38 3c d5 30 70 bb
       -0.015093434 -0.005550137 0.011244411 -0.00366502
000030 a3 e8 62 bb 18 3e cf 3a c5 c0 4f bc 6f 91 6c bc
       -0.0034623526 0.0015811352 -0.012680237 -0.014438971
000040 b0 d3 b9 bc 1e 9e 2e 3c a2 d0 96 3b 7a 14 4b 3c
       -0.022683948 0.010657815 0.0046025077 0.012395019
000050 90 cf 80 bc e4 a6 4a bb ab 4c d0 3c 88 3e 6e 3b
       -0.015723974 -0.0030922228 0.025427183 0.003635319
000060 d0 88 94 bb 01 dd 98 bb 5b 61 4c 3c 5b 45 6d b9
       -0.004532911 -0.0046650176 0.012474383 -0.00022627918
000070 ba c2 07 bb 49 c3 02 bc 67 b8 38 3c 45 29 ff bb
       -0.0020715431 -0.00798113 0.011274434 -0.007786902
000080 3b 92 a1 bc c7 5e c4 b9 13 d1 47 3b 1d 25 38 3c
       -0.019723048 -0.00037454648 0.0030489608 0.011239317
000090 63 fa 4e bc 98 70 f7 b9 e5 43 3d bb fa 16 e1 3c
       -0.012632939 -0.000471954 -0.002887958 0.027476776
0000a0 9f 05 98 3c be 48 a4 bb 02 b4 ed ba 2f 04 6d bc
       0.018557368 -0.0050135544 -0.0018135312 -0.0144663295
0000b0 38 bc 19 bb d7 9a 26 3c cb 51 62 bc e5 c7 c6 3c
       -0.0023458134 0.010168753 -0.013813446 0.024265239
0000c0 54 90 0a 3d 66 04 90 bc 88 b0 b7 bc 7a 27 f1 3c
       0.03382905 -0.017580222 -0.022423044 0.02943777
0000d0 b1 f0 06 3d 48 50 b0 3c 74 fb b8 3c 22 25 71 bc
       0.032944385 0.021522656 0.02258084 -0.014718326
0000e0 cd b2 26 3d 91 c6 1e 3b 6a 30 eb bc bf fa fd 3b
       0.04069786 0.0024227242 -0.028709609 0.0077508385
0000f0 88 8e 76 3a bb e4 ac 38 3d f7 69 3c bd 44 b6 bb
       0.0009405394 8.2442035e-05 0.014280138 -0.0055623935
000100 3b 81 06 3c 00 40 73 3c 47 59 6e 3c d9 28 c2 b9
       0.008209522 0.014846802 0.014547653 -0.00037032997
000110 42 2e da bb 82 06 af 3c 8b 96 61 3a b4 55 87 3b
       -0.0066583464 0.021365408 0.00086055015 0.0041300897
000120 c4 cc 94 3c 79 8f 83 3b 91 64 44 bb 08 9b cc 3a
       0.018164046 0.004014906 -0.0029967169 0.0015610168
000130 fe 00 02 bd 3c 4d bf bc bc 4a 97 3c 56 d9 ae 3c
       -0.031739227 -0.023352258 0.018468253 0.021343868
000140 49 25 a0 bc f8 d0 98 3c 8f d6 22 bb 48 f2 80 bc
       -0.019549029 0.018654332 -0.0024847125 -0.015740529
000150 4d 80 b0 bb 3a 60 d1 bb 0e 9d 81 bc 68 9a c3 3c
       -0.0053863884 -0.006389645 -0.01582196 0.023877338
000160 4f 03 57 bb eb b9 cd 3b bf dc 79 3c 72 34 45 bc
       -0.0032808369 0.0062782667 0.015250384 -0.01203643
000170 00 df cc bc ab c0 26 3c 76 7b 20 3c 77 2c d4 3b
       -0.025008678 0.010177772 0.00979506 0.006475027
000180 2b 07 fd bb 17 07 3b 3c 2f 6f 99 3c f0 3a fb bb
       -0.0077218018 0.011415265 0.018729774 -0.007666938
000190 18 7e 87 bc 40 88 49 bd 2e 62 8d 3c fb 51 1d bc
       -0.016539618 -0.049202204 0.01725873 -0.009602065
0001a0 a9 8d 15 bc df 6a db 3a cb f4 3d 3d b3 8d 88 bc
       -0.009128013 0.0016740224 0.04637603 -0.01666913
0001b0 1b 1e e1 bc ed c5 a8 3b 3d 67 61 bc 3a a8 a4 bc
       -0.027480176 0.0051505477 -0.013757524 -0.020099748
0001c0 62 f5 06 bd 39 08 c4 3b b3 4b 15 3c 4f af 71 bc
       -0.03294886 0.0059824255 0.009112286 -0.0147512695
0001d0 01 a9 b9 bc ba 5c 0f 39 04 9f 9f bc 5a 55 dc 3b
       -0.022663595 0.00013672086 -0.019485004 0.006724042
0001e0 53 0b a1 3c f3 eb 85 3c fb 44 fa 3c d8 80 62 bc
       0.01965872 0.01634786 0.03055047 -0.013824664
0001f0 1b 97 94 bb 60 c8 c6 bc e0 7e 80 3b a5 13 5d 3b
       -0.0045346147 -0.024265468 0.0039213747 0.0033733633
000200 8b a0 90 ba 23 69 14 bd af b9 e2 bc 58 fd 38 bb
       -0.0011034174 -0.03623308 -0.027676431 -0.0028227177
000210 93 e1 3c 3c 7b 48 a7 bc ea 98 60 ba 50 a6 8d 3b
       0.01152839 -0.020420304 -0.0008567708 0.0043228045
000220 90 7b c3 3c e8 8f 60 bb 9f 0b 8e 3c 40 a8 c6 3b
       0.02386263 -0.0034265462 0.017339526 0.0060625374
000230 e9 f9 39 3c 1f ab b4 bc 6d e6 cd bb 2a 38 5f 3b
       0.011351087 -0.022054253 -0.0062835724 0.0034060576
000240 f4 bf 02 3c c8 57 25 bd 17 a1 ce ba f6 04 2a bd
       0.0079803355 -0.040366918 -0.0015764561 -0.041508637
000250 ef 3b 08 3d 54 96 b7 3c 1f 92 c6 bc ca 5a 1c bd
       0.033260282 0.02241055 -0.024239598 -0.03817252
000260 66 fd b9 3c 38 33 de 3c 67 57 4d bc 56 eb 8c 3c
       0.022703838 0.027124032 -0.012533045 0.01720206
000270 9d c8 60 3c ea bb a0 bc 63 a5 c2 bb dd 7d a9 bc
       0.013719705 -0.019620854 -0.005940126 -0.0206899
000280 83 08 6b 3c d7 94 d2 bb 17 5c 10 3d 4d 43 8f bc
       0.014345291 -0.0064264345 0.035244074 -0.017488146
000290 6c 1b 29 3a d5 e9 dd 3a 22 c4 1c bb 58 ef e5 bb
       0.00064509246 0.0016930649 -0.0023920615 -0.0070170574
0002a0 36 77 8f bc 01 f5 c0 3b a8 d3 55 bc 7d 8c 9d 3b
       -0.017512899 0.0058885817 -0.013050951 0.0048080073
0002b0 82 23 23 bb 0a 41 84 bc 20 35 d4 bb 93 81 42 bc
       -0.002489299 -0.016144294 -0.0064760596 -0.011871713
0002c0 98 56 f1 bc 70 e0 e7 bc ff d2 14 3b 45 8f 38 3d
       -0.029460236 -0.028305262 0.0022708771 0.045058507
0002d0 54 4e a5 b8 51 17 0c bd 55 cc 6b bc 7f 1f dc bc
       -7.882403e-05 -0.034201924 -0.014391978 -0.026870487
0002e0 6f 55 9a bc 2f f5 87 bc 62 6f df bb db d1 86 bc
       -0.018839566 -0.016596405 -0.006818698 -0.016457489
0002f0 75 da dc 3c 5a 16 db bb ad 8d 7f bb 33 ff 1a 3c
       0.026959637 -0.006686014 -0.0038994357 0.009460258
000300 eb 48 e3 3c 92 d0 e9 3b 5e 6f 90 3c 39 1e 0b bc
       0.027744731 0.007135459 0.017631229 -0.008491092
000310 6a 75 83 bc b8 c3 88 3c c7 61 a6 3c 1a ad 1e bb
       -0.016047198 0.016694888 0.020310296 -0.0024212063
000320 38 d6 e3 bc de 3c a7 3c c6 a5 9b bb fd b3 40 bb
       -0.027812108 0.020414766 -0.0047499863 -0.0029404156
000330 b3 de 06 bd e0 fd 4c bb 83 36 10 bb 08 8e a8 3c
       -0.032927226 -0.003127925 -0.0022005148 0.020575538
000340 50 7d 06 b9 6c 1b 4b bc 2f b3 40 bc 2f 08 7c 3b
       -0.00012825918 -0.012396675 -0.011761471 0.0038457026
000350 a4 1a b9 39 2b c3 43 3c a3 31 91 3c 78 78 15 bd
       0.00035305799 0.011948387 0.017723864 -0.03649184
000360 11 e5 bc bc 55 74 79 3c 5e cb 32 bb be 5f 82 3c
       -0.023058446 0.01522549 -0.002728186 0.015914794
000370 11 6b 1e 3c c1 ce 20 bd 9f 4f c2 bc 05 df ff bb
       0.009669081 -0.039259676 -0.023719607 -0.0078085684
000380 60 4a 0a bc 1a 40 22 bd 9d b6 ea bc 6d b3 b3 3c
       -0.008440584 -0.039611913 -0.02865153 0.021936143
000390 7f 52 82 3c 69 da 0f 3b 60 7d 18 bd 77 d9 60 3c
       0.015908478 0.002195025 -0.037228942 0.013723723
0003a0 42 9b 3c bb f0 03 72 b9 86 c0 25 bb 52 bb e4 3a
       -0.0028779064 -0.00023080385 -0.0025291755 0.0017450845
0003b0 23 a9 83 3b c2 5f 02 3d f0 fb 1e 3b a3 89 73 3c
       0.0040179654 0.031829603 0.0024259053 0.014864358
0003c0 fd 72 e0 ba 67 1c a6 3c 5b 35 3b 3c 3b e8 0e bc
       -0.0017124113 0.020277215 0.011426295 -0.00872236
0003d0 42 43 50 bc 0e 79 08 bd f6 f3 10 3c 60 27 a7 bc
       -0.012711348 -0.03331857 0.008847227 -0.020404518
0003e0 e3 37 fc 3b 0d 77 bb 3b 23 3f f8 bc 08 65 d3 39
       0.007697092 0.005720979 -0.030303543 0.0004032033
0003f0 33 b6 49 bc 69 81 36 bc a4 4c 30 3d 9b 53 bb bb
       -0.012311506 -0.011139252 0.04304184 -0.0057167537

action_model._continuous_distribution.mu.bias f4 [2]
000000 00 00 00 00 00 00 00 00
       0.0 0.0
