results/emptyCourse/MoveToGoal/checkpoint.pt (torch, 149303 bytes, 12 tensors)

network_body._body_endoder.seq_layers.0.weight f4 [128, 6]
0	0x3e0a4550	0.13503003
1	0x3e311206	0.17292032
2	0x3f029867	0.510138
3	0xbdffb76a	-0.12486155
4	0xbf0a4066	-0.54004514
5	0xbefe5bec	-0.49679506
6	0xbe9d46d7	-0.3071811
7	0x3e95bb5d	0.2924451
8	0xbe18da78	-0.14927089
9	0xbf0fa18a	-0.56105864
10	0x3e7b6cf8	0.24553287
11	0xbe98265e	-0.29716772
12	0x3ed3f523	0.41397962
13	0x3e8f78f8	0.2802198
14	0xbe359e91	-0.1773627
15	0xbea3d33f	-0.31997105
16	0xbebd3f6d	-0.36962453
17	0x3b2ec152	0.002666552
18	0xbd9198bb	-0.07109209
19	0x3e5fd9cd	0.21860428
20	0xbeb6e6f9	-0.35723093
21	0xbf42d6f4	-0.7610924
22	0x3d994b77	0.07485097
23	0xbeecf8d6	-0.46283597
24	0x3f09a615	0.53769046
25	0xbe39cb0d	-0.18143864
26	0xbe8246ec	-0.25444734
27	0x3ee794eb	0.45230803
28	0x3e0edd96	0.13951716
29	0x3d70bf6a	0.058776297
30	0x3e2afa45	0.16697033
31	0xbe36e47d	-0.17860599
32	0xbd863097	-0.065522365
33	0xbf39812e	-0.7246274
34	0xbe6f7ec2	-0.23388198
35	0xbe87bb97	-0.26510307
36	0x3f1b2b3c	0.60612845
37	0x3d904cd2	0.07045902
38	0xbf36a4b3	-0.7134506
39	0x3e9f90b8	0.311651
40	0x3eac3227	0.33632013
41	0xbe8c8cb6	-0.27451104
42	0xbf13d6c0	-0.5774956
43	0xbf03b566	-0.5144867
44	0xbf26b532	-0.6512023
45	0xbdefdeb2	-0.11712398
46	0xbb8eb8c8	-0.0043555237
47	0xbdc04df4	-0.093898684
48	0x3f72cdca	0.9484526
49	0x3ee2d613	0.4430395
50	0x3ea073d0	0.31338358
51	0x3ea22c50	0.31674433
52	0xbe8daee9	-0.27672508
53	0x3ed865f0	0.42265272
54	0x3e12babb	0.14329045
55	0x3e02c66e	0.12771007
56	0x3f0f4edd	0.5597971
57	0xbd53cda2	-0.05170978
58	0x3e054820	0.13015795
59	0xbe435663	-0.19075923
60	0x3f12e5d1	0.5738192
61	0xbf10646e	-0.56403244
62	0xbf0d9f5d	-0.55321294
63	0xbf0330e3	-0.5124647
64	0xbcdf322c	-0.027245604
65	0x3e5403a1	0.2070451
66	0xbe8ccd7d	-0.27500525
67	0xbcd0a41d	-0.02546888
68	0x3e7f53a4	0.2493425
69	0xbf3e38da	-0.743055
70	0x3ec27945	0.37983146
71	0x3f3d592d	0.73964196
72	0x3f0b7ac1	0.5448418
73	0x3ecd1700	0.4005661
74	0xbddbec32	-0.1073841
75	0xbec7871e	-0.38970274
76	0x3e5dca17	0.21659122
77	0x3f601e8f	0.8754663
78	0x3d088d04	0.033337608
79	0x3d5048b7	0.050850596
80	0x3d5e2601	0.054235462
81	0xbf11c4d0	-0.5694094
82	0xbf08c3b3	-0.53423613
83	0xbe990339	-0.2988527
84	0x3edfcb37	0.43709728
85	0x3eb467e1	0.35235503
86	0x3e156c77	0.14592157
87	0x3f05dcfb	0.52290314
88	0x3ecb9d99	0.39768675
89	0x3d1e199c	0.03859864
90	0xbf36c000	-0.7138672
91	0xbf0d2e74	-0.55149007
92	0xbf0ca6a4	-0.54941773
93	0xbd26dc99	-0.040737722
94	0xbecd6d29	-0.40122345
95	0x3e87b794	0.26507246
96	0x3e897363	0.26845846
97	0x3f23f0ee	0.64039505
98	0x3e847b63	0.25875387
99	0xbe8f0bdc	-0.27938735
100	0x3ee33bfc	0.44381702
101	0x3dbadf5e	0.09124635
102	0x3f328f21	0.6974965
103	0xbef2de3d	-0.4743518
104	0xbe46f2d8	-0.19428575
105	0xbe336d97	-0.17522274
106	0x3e0f1ec0	0.13976574
107	0x3f2c7fae	0.67382324
108	0x3ecee99a	0.404126
109	0xbec40089	-0.38281658
110	0x3eb3860a	0.350632
111	0xbf0594dc	-0.52180266
112	0x3cf1da0d	0.02952292
113	0xbee7a20c	-0.4524082
114	0x3db77e38	0.08959621
115	0xbcfc6470	-0.030809611
116	0x3cc70a52	0.024296913
117	0xbe11dac6	-0.14243612
118	0x3ebd2e47	0.3694937
119	0xbe850e0c	-0.2598728
120	0x3ebfbd1a	0.3744896
121	0xbd808064	-0.062744886
122	0xbdfc9953	-0.12333932
123	0x3d258a14	0.040414885
124	0xbf13aaa4	-0.5768225
125	0xbf1f690c	-0.62269664
126	0xbf386420	-0.7202778
127	0xbeb75bd0	-0.35812235
128	0xbcbcfa5d	-0.023068601
129	0x3e73fb49	0.23826326
130	0x3eb87c98	0.36032557
131	0x3e836937	0.2566621
132	0x3d96969e	0.07352947
133	0x3c679489	0.014134535
134	0x3e242eca	0.16033474
135	0xbe8f9524	-0.28043473
136	0x3eaa86b0	0.33305883
137	0xbf884f81	-1.0649263
138	0xbe74b1f0	-0.23896003
139	0xbd33a94e	-0.043862633
140	0x3d2b798b	0.04186396
141	0xbe3f6b2f	-0.18693231
142	0x3eb5bb4f	0.35494468
143	0x3ebd2300	0.36940765
144	0xbf50dade	-0.81583965
145	0xbe0b56a1	-0.13607265
146	0xbe80e3c5	-0.25173774
147	0xbe8b1114	-0.27161467
148	0x3f3a8e38	0.7287326
149	0xbeacab20	-0.33724308
150	0x3eaec5a1	0.34135154
151	0xbe7e8a0d	-0.2485735
152	0xbbf15d14	-0.007365832
153	0x3ebe0477	0.3711278
154	0xbc635d14	-0.013877172
155	0xbd17eb24	-0.037089482
156	0x3e8f4ba3	0.27987394
157	0x3bdc53b7	0.006723847
158	0x3e66f1a7	0.2255312
159	0x3f380fd5	0.7189916
160	0xbe8ec584	-0.27885067
161	0x3c4172ca	0.011807153
162	0xbe042be9	-0.12907375
163	0xbe944986	-0.28962344
164	0x3e15edab	0.14641444
165	0x3c9dd567	0.019266797
166	0x3ec722e2	0.388938
167	0xbdaa7cb8	-0.083245695
168	0x3e42cafb	0.19022743
169	0xbe0b070e	-0.1357691
170	0x3ec7c88e	0.390202
171	0x3f032927	0.5123467
172	0x3c644c27	0.013934172
173	0xbd11ed13	-0.035626482
174	0xbe36570c	-0.17806643
175	0xbd638457	-0.05554613
176	0x3e68edac	0.22746915
177	0x3e255578	0.16145885
178	0x3ebed3c4	0.3727094
179	0x3e5d0ea1	0.21587612
180	0x3e19f8e7	0.15036355
181	0xbdf70a0a	-0.12062462
182	0xbe3e4b8d	-0.18583508
183	0x3e9e7093	0.30945262
184	0xbc4d301f	-0.01252368
185	0x3ee61e8b	0.44945177
186	0x3f0a46f0	0.5401449
187	0xbe2c448f	-0.16823028
188	0x3e9ff44e	0.31241077
189	0x3ec2913a	0.38001424
190	0x3f125979	0.57167774
191	0x3f245200	0.6418762
192	0x3f371e33	0.71530455
193	0x3cca8d36	0.024725538
194	0x3d0d91ac	0.03456275
195	0x3efee558	0.4978435
196	0xbf4d2417	-0.80133194
197	0x3eb8c2ad	0.36086026
198	0x3dd27335	0.1027588
199	0x3e50681c	0.20352215
200	0xbe21aefc	-0.15789407
201	0x3e2bdbb8	0.16783035
202	0xbe90d496	-0.2828719
203	0xbd56d937	-0.052453246
204	0xbf14a3ac	-0.58062243
205	0x3e90f89a	0.28314668
206	0xbeb49ab7	-0.35274288
207	0xbda3d161	-0.0799892
208	0x3e8f7c10	0.2802434
209	0xbef6e72f	-0.48223254
210	0xbed4c767	-0.41558382
211	0xbf073be8	-0.52825785
212	0x3c3a189a	0.0113584045
213	0x3d7c1ee1	0.061552886
214	0xbe4ef666	-0.20211181
215	0xbef9b7fc	-0.4877318
216	0xbe3b1d06	-0.1827279
217	0xbf23a246	-0.63919485
218	0xbf212e9e	-0.6296176
219	0xbf3f1d38	-0.7465396
220	0xbef74eb3	-0.4830223
221	0x3eb554c3	0.3541623
222	0x3f2fb575	0.68636256
223	0x3f82a711	1.0207235
224	0xbf251069	-0.64478165
225	0x3eb18597	0.34672233
226	0xbf0f8a3f	-0.5607032
227	0xbbb8dd82	-0.00564164
228	0x3cc7f05f	0.02440661
229	0x3f1d2c8f	0.61396116
230	0x3e76f256	0.24115881
231	0x3e57ff57	0.21093498
232	0x3d9b7780	0.07591152
233	0xbe3e59b3	-0.18588905
234	0x3c63c76a	0.0139025245
235	0x3ed4f172	0.41590458
236	0xbf558997	-0.8341307
237	0xbf3125d3	-0.6919834
238	0x3ef47ea1	0.4775286
239	0x3ec03c67	0.37546083
240	0xbee4db64	-0.44698632
241	0xbcf20024	-0.029541083
242	0x3d2b3ced	0.04180615
243	0xbde31532	-0.11088027
244	0xbe5c62ed	-0.21522112
245	0x3f4a5e2a	0.7904993
246	0xbccef8b6	-0.025265079
247	0xbe4dcd8a	-0.20097938
248	0x3da7fb61	0.082022436
249	0x3b8a2627	0.004215974
250	0x3c9240b3	0.017853117
251	0x3ead6b09	0.33870724
252	0x3f2535b4	0.6453507
253	0x3e8d59e0	0.27607632
254	0xbccee197	-0.025254054
255	0xbebc1b97	-0.367398

network_body._body_endoder.seq_layers.0.bias f4 [128]
0	0x00000000	0.0
1	0x00000000	0.0
2	0x00000000	0.0
3	0x00000000	0.0
4	0x00000000	0.0
5	0x00000000	0.0
6	0x00000000	0.0
7	0x00000000	0.0
8	0x00000000	0.0
9	0x00000000	0.0
10	0x00000000	0.0
11	0x00000000	0.0
12	0x00000000	0.0
13	0x00000000	0.0
14	0x00000000	0.0
15	0x00000000	0.0
16	0x00000000	0.0
17	0x00000000	0.0
18	0x00000000	0.0
19	0x00000000	0.0
20	0x00000000	0.0
21	0x00000000	0.0
22	0x00000000	0.0
23	0x00000000	0.0
24	0x00000000	0.0
25	0x00000000	0.0
26	0x00000000	0.0
27	0x00000000	0.0
28	0x00000000	0.0
29	0x00000000	0.0
30	0x00000000	0.0
31	0x00000000	0.0
32	0x00000000	0.0
33	0x00000000	0.0
34	0x00000000	0.0
35	0x00000000	0.0
36	0x00000000	0.0
37	0x00000000	0.0
38	0x00000000	0.0
39	0x00000000	0.0
40	0x00000000	0.0
41	0x00000000	0.0
42	0x00000000	0.0
43	0x00000000	0.0
44	0x00000000	0.0
45	0x00000000	0.0
46	0x00000000	0.0
47	0x00000000	0.0
48	0x00000000	0.0
49	0x00000000	0.0
50	0x00000000	0.0
51	0x00000000	0.0
52	0x00000000	0.0
53	0x00000000	0.0
54	0x00000000	0.0
55	0x00000000	0.0
56	0x00000000	0.0
57	0x00000000	0.0
58	0x00000000	0.0
59	0x00000000	0.0
60	0x00000000	0.0
61	0x00000000	0.0
62	0x00000000	0.0
63	0x00000000	0.0
64	0x00000000	0.0
65	0x00000000	0.0
66	0x00000000	0.0
67	0x00000000	0.0
68	0x00000000	0.0
69	0x00000000	0.0
70	0x00000000	0.0
71	0x00000000	0.0
72	0x00000000	0.0
73	0x00000000	0.0
74	0x00000000	0.0
75	0x00000000	0.0
76	0x00000000	0.0
77	0x00000000	0.0
78	0x00000000	0.0
79	0x00000000	0.0
80	0x00000000	0.0
81	0x00000000	0.0
82	0x00000000	0.0
83	0x00000000	0.0
84	0x00000000	0.0
85	0x00000000	0.0
86	0x00000000	0.0
87	0x00000000	0.0
88	0x00000000	0.0
89	0x00000000	0.0
90	0x00000000	0.0
91	0x00000000	0.0
92	0x00000000	0.0
93	0x00000000	0.0
94	0x00000000	0.0
95	0x00000000	0.0
96	0x00000000	0.0
97	0x00000000	0.0
98	0x00000000	0.0
99	0x00000000	0.0
100	0x00000000	0.0
101	0x00000000	0.0
102	0x00000000	0.0
103	0x00000000	0.0
104	0x00000000	0.0
105	0x00000000	0.0
106	0x00000000	0.0
107	0x00000000	0.0
108	0x00000000	0.0
109	0x00000000	0.0
110	0x00000000	0.0
111	0x00000000	0.0
112	0x00000000	0.0
113	0x00000000	0.0
114	0x00000000	0.0
115	0x00000000	0.0
116	0x00000000	0.0
117	0x00000000	0.0
118	0x00000000	0.0
119	0x00000000	0.0
120	0x00000000	0.0
121	0x00000000	0.0
122	0x00000000	0.0
123	0x00000000	0.0
124	0x00000000	0.0
125	0x00000000	0.0
126	0x00000000	0.0
127	0x00000000	0.0

network_body._body_endoder.seq_layers.2.weight f4 [128, 128]
0	0xbd548039	-0.051880095
1	0x3e00ba9e	0.12571189
2	0xbc8a05b2	-0.016848419
3	0xbd38a93e	-0.045083277
4	0xbc3c4966	-0.011492109
5	0xbd80364d	-0.06260357
6	0x3dccfb88	0.10008913
7	0x3c6361c9	0.013878294
8	0xbd39b0c7	-0.045334604
9	0x3e889144	0.2667333
10	0xbc4642a9	-0.012100854
11	0xbc06d423	-0.008229288
12	0x3d63aa86	0.055582546
13	0x3cfa4692	0.030551229
14	0x3c81d15b	0.015846899
15	0xbd4302d4	-0.04761012
16	0xbc556de1	-0.013026685
17	0x3d809768	0.062788785
18	0x3de47fed	0.111572124
19	0xbd3b5b40	-0.04574132
20	0x3c017201	0.007900716
21	0x3db7ad6c	0.089686245
22	0xbd26b5e1	-0.040700797
23	0x3cd0c777	0.025485737
24	0x3d03ca73	0.032175492
25	0xbd97bcdb	-0.07409068
26	0x3da75e76	0.08172314
27	0xbd7a604a	-0.061126985
28	0xbdfe7a9c	-0.1242573
29	0x3cc19e25	0.02363498
30	0xbd7a9c93	-0.061184477
31	0x3e2f1337	0.17097174
32	0xbd554959	-0.052071903
33	0x3dc5f50d	0.0966588
34	0xbd7252b1	-0.059160892
35	0x3d8934a9	0.06699497
36	0x3c77c3be	0.015122352
37	0x3e2887fb	0.16458122
38	0x3e0787bb	0.13235371
39	0xbd1acb0c	-0.037791297
40	0xbcfdf48d	-0.0310004
41	0xbdeca37a	-0.11554618
42	0x3da6c75c	0.081434935
43	0xbdc96228	-0.09833175
44	0xbc1483ab	-0.009064595
45	0x3d2eab4d	0.042643834
46	0xbd18b99b	-0.037286382
47	0xbe153fae	-0.14575073
48	0x3d866975	0.06563083
49	0xba08cb50	-0.0005218284
50	0xbd27d3a4	-0.04097332
51	0xbb38b7cc	-0.0028185723
52	0xbe4258ef	-0.18979238
53	0xbd506cf9	-0.050885174
54	0x3d2f8a14	0.04285629
55	0x3dcd9083	0.10037329
56	0xbdf54972	-0.11976899
57	0xbe005955	-0.12534077
58	0x3c0e8209	0.008697995
59	0xbe20828f	-0.15674804
60	0x3e0015fd	0.12508388
61	0xbd44b480	-0.0480237
62	0x3d567696	0.052359186
63	0x3e26e50e	0.16298315
64	0x3ddcd5db	0.10782977
65	0xbcce40e5	-0.025177428
66	0x3d1fcd1a	0.03901396
67	0xbe4b0b7b	-0.19828598
68	0xbdf72092	-0.12066759
69	0x3d822966	0.063555524
70	0xbd2576a4	-0.040396348
71	0x3c50aef4	0.012737025
72	0xbc8eccb6	-0.017431598
73	0x3c62b549	0.013837167
74	0xbd92a092	-0.071595326
75	0x3de3eff7	0.11129754
76	0xbc69b6da	-0.014264787
77	0x3e036467	0.12831269
78	0x3e1e67ca	0.1546928
79	0xbdd1ee98	-0.10250586
80	0xbd3f81ef	-0.046754774
81	0x3d52abd4	0.0514334
82	0x3e24e73e	0.16103837
83	0xbdb50dd5	-0.08840529
84	0x3e160f45	0.14654262
85	0x3e6e4a21	0.23270465
86	0xbbcd6584	-0.006268205
87	0xbcdf0a71	-0.027226659
88	0x3d1e0296	0.038576685
89	0x3ccbf0ad	0.024895037
90	0x3d0f32b8	0.03496048
91	0x3d333898	0.043755144
92	0x3da44bfc	0.08022305
93	0x3dc3b1e7	0.095554166
94	0xbdb9fa2c	-0.090809196
95	0x3cbdccbf	0.02316892
96	0xbc5889e2	-0.013216468
97	0xbe1ce29d	-0.15320821
98	0xbd9be36f	-0.07611739
99	0xbdf43562	-0.119242445
100	0x3c8065dc	0.01567357
101	0x3d730b05	0.05933668
102	0xbe6f1a4a	-0.23349872
103	0xbd825cd5	-0.063653626
104	0xbd759474	-0.05995603
105	0x3d670254	0.056398705
106	0xbd83ee06	-0.06441884
107	0x3d155d05	0.036465663
108	0x3d12f8a0	0.03588164
109	0x3d2b07c9	0.04175547
110	0x3c63cc95	0.013903757
111	0x3dc931fd	0.09823988
112	0xbdc36bc0	-0.09542036
113	0xbdc71eb1	-0.09722651
114	0x3d53aa8b	0.051676314
115	0x3cec7a50	0.028866917
116	0xbde91a52	-0.11381973
117	0x3d5bf2c3	0.053698312
118	0xbd83154f	-0.06400549
119	0xbcb5021a	-0.022095729
120	0x3d7c59fe	0.06160926
121	0xbd33eb8b	-0.043925803
122	0xbdd6692a	-0.10469277
123	0xbd04db26	-0.03243556
124	0xbd03ddce	-0.03219395
125	0x3d0ca4dd	0.034336913
126	0xbdc34781	-0.09535123
127	0x3b3ac928	0.0028501246
128	0xbd32a1f2	-0.043611474
129	0xbe0b641a	-0.13612404
130	0x3c94a4bf	0.018144963
131	0x3c78cfe4	0.015186284
132	0x3dafd121	0.0858481
133	0x3d3bf776	0.045890294
134	0xbdc83b7c	-0.09776971
135	0x3c76a514	0.015054006
136	0x3d6aec66	0.057354353
137	0x3d1b7235	0.037950713
138	0x3e228a83	0.1587315
139	0xbdcbf07c	-0.09957978
140	0x3cea8e33	0.028632259
141	0xbd8ddef8	-0.069272935
142	0xbd9fc1f7	-0.07800668
143	0x3c3ad07a	0.011402244
144	0x3e0e3062	0.13885644
145	0xbb8d6a48	-0.004315648
146	0xbdd6ab47	-0.10481887
147	0x3ca707e5	0.020389507
148	0xbdfee030	-0.12445104
149	0x3c05562f	0.008138224
150	0x3cb56549	0.022143023
151	0xbc742af8	-0.014902823
152	0xbd3dce76	-0.046339475
153	0x3d3656e1	0.044516448
154	0xbcca286c	-0.024677478
155	0x3dec83b5	0.115485586
156	0x3dc74b11	0.09731115
157	0xbdaf1af7	-0.08550065
158	0xbc62bf27	-0.01383952
159	0x3b68d758	0.0035528746
160	0xbc30d18e	-0.010792149
161	0xbe2034ce	-0.15645143
162	0xbdc6bca0	-0.09703946
163	0x3e19e625	0.150292
164	0x3b847d27	0.0040432396
165	0xbd92bb5b	-0.071646415
166	0xbd8ece8b	-0.06972989
167	0xbe00a552	-0.12563065
168	0xbe43ba92	-0.1911414
169	0x3ddb0a17	0.10695284
170	0xbd0a1544	-0.033711687
171	0xbc0cbcde	-0.008589951
172	0x3d2382a7	0.03991952
173	0x3d2c1f97	0.042022314
174	0x3c91de60	0.017806232
175	0xbd6e8506	-0.05823233
176	0x3ded2bb1	0.11580599
177	0xbdcf4d32	-0.10122146
178	0xbd4d3155	-0.050095875
179	0x3d614e2f	0.055006202
180	0xbd21f878	-0.0395436
181	0xbb2d4764	-0.0026440257
182	0xbccf8d39	-0.025335895
183	0xbd82b970	-0.06383026
184	0x3cf09097	0.02936582
185	0xbd704f6d	-0.058669496
186	0x3d84256c	0.0645245
187	0xbd609495	-0.0548292
188	0xbe56ba41	-0.20969488
189	0x3dd815d7	0.105510406
190	0x3d821aec	0.06352791
191	0x3c45bcf5	0.012068977
192	0xbe2ed296	-0.1707252
193	0xbdb4e31c	-0.0883238
194	0xbc4ea91e	-0.012613563
195	0x3d2b2b37	0.04178926
196	0x3cb65a2e	0.022259798
197	0x3cec2147	0.028824462
198	0x3dfeb848	0.124374926
199	0xbd3c7e96	-0.04601916
200	0x3ce9e497	0.028551383
201	0xba54e833	-0.00081217586
202	0x3d816d70	0.06319702
203	0x3c84585c	0.016155414
204	0xbd14ff9d	-0.036376584
205	0xbd464da0	-0.048413873
206	0xbd8abd9b	-0.067744456
207	0x3d7e7ebb	0.06213258
208	0xbdd518e7	-0.1040514
209	0xbe076381	-0.13221551
210	0xbd837241	-0.064182766
211	0xbd4a3428	-0.049366146
212	0x3e18ff99	0.14941253
213	0xbe07b0d6	-0.13251051
214	0x3cc08868	0.023502544
215	0xbd2c3dbb	-0.04205106
216	0x3cd6ab41	0.026204707
217	0xbd8aebb2	-0.067832366
218	0x3ca94df7	0.02066706
219	0x3dcff425	0.10153989
220	0x3d83b78a	0.06431492
221	0x3cf615a2	0.030039612
222	0xbd24dcc4	-0.0402496
223	0xbddac73f	-0.106825344
224	0xbe4401d6	-0.19141325
225	0xbe5dac86	-0.21647844
226	0x3ba61beb	0.005069246
227	0xbcc81435	-0.024423698
228	0x3d1a4dd9	0.037671898
229	0x3cdda2f3	0.02705524
230	0x3e25279e	0.16128394
231	0xbce0042c	-0.02734574
232	0xbd36f960	-0.044671416
233	0x3e1869f2	0.14884165
234	0x3dc54863	0.09632947
235	0x3dd0a08f	0.10186874
236	0x3db4e1df	0.08832144
237	0xbc5068c9	-0.012720295
238	0x3d8e7d21	0.0695746
239	0x3d70e3b6	0.058810912
240	0xbe15d122	-0.14630559
241	0x3d85f1a4	0.0654023
242	0x3b26e765	0.0025467512
243	0x3db72f8b	0.08944615
244	0xbb3fbc3e	-0.0029256488
245	0xbbffb5db	-0.0078036613
246	0x3d32bd1c	0.04363738
247	0x3cc522a6	0.024064373
248	0x3dc4d6fc	0.096113175
249	0x3df82bbe	0.12117718
250	0x3c372c0d	0.011179936
251	0x3e171ee6	0.1475788
252	0xbcffdd1f	-0.031233368
253	0x3da36873	0.079789065
254	0xbc147c0a	-0.009062776
255	0xbe5a4b87	-0.21317874

network_body._body_endoder.seq_layers.2.bias f4 [128]
0	0x00000000	0.0
1	0x00000000	0.0
2	0x00000000	0.0
3	0x00000000	0.0
4	0x00000000	0.0
5	0x00000000	0.0
6	0x00000000	0.0
7	0x00000000	0.0
8	0x00000000	0.0
9	0x00000000	0.0
10	0x00000000	0.0
11	0x00000000	0.0
12	0x00000000	0.0
13	0x00000000	0.0
14	0x00000000	0.0
15	0x00000000	0.0
16	0x00000000	0.0
17	0x00000000	0.0
18	0x00000000	0.0
19	0x00000000	0.0
20	0x00000000	0.0
21	0x00000000	0.0
22	0x00000000	0.0
23	0x00000000	0.0
24	0x00000000	0.0
25	0x00000000	0.0
26	0x00000000	0.0
27	0x00000000	0.0
28	0x00000000	0.0
29	0x00000000	0.0
30	0x00000000	0.0
31	0x00000000	0.0
32	0x00000000	0.0
33	0x00000000	0.0
34	0x00000000	0.0
35	0x00000000	0.0
36	0x00000000	0.0
37	0x00000000	0.0
38	0x00000000	0.0
39	0x00000000	0.0
40	0x00000000	0.0
41	0x00000000	0.0
42	0x00000000	0.0
43	0x00000000	0.0
44	0x00000000	0.0
45	0x00000000	0.0
46	0x00000000	0.0
47	0x00000000	0.0
48	0x00000000	0.0
49	0x00000000	0.0
50	0x00000000	0.0
51	0x00000000	0.0
52	0x00000000	0.0
53	0x00000000	0.0
54	0x00000000	0.0
55	0x00000000	0.0
56	0x00000000	0.0
57	0x00000000	0.0
58	0x00000000	0.0
59	0x00000000	0.0
60	0x00000000	0.0
61	0x00000000	0.0
62	0x00000000	0.0
63	0x00000000	0.0
64	0x00000000	0.0
65	0x00000000	0.0
66	0x00000000	0.0
67	0x00000000	0.0
68	0x00000000	0.0
69	0x00000000	0.0
70	0x00000000	0.0
71	0x00000000	0.0
72	0x00000000	0.0
73	0x00000000	0.0
74	0x00000000	0.0
75	0x00000000	0.0
76	0x00000000	0.0
77	0x00000000	0.0
78	0x00000000	0.0
79	0x00000000	0.0
80	0x00000000	0.0
81	0x00000000	0.0
82	0x00000000	0.0
83	0x00000000	0.0
84	0x00000000	0.0
85	0x00000000	0.0
86	0x00000000	0.0
87	0x00000000	0.0
88	0x00000000	0.0
89	0x00000000	0.0
90	0x00000000	0.0
91	0x00000000	0.0
92	0x00000000	0.0
93	0x00000000	0.0
94	0x00000000	0.0
95	0x00000000	0.0
96	0x00000000	0.0
97	0x00000000	0.0
98	0x00000000	0.0
99	0x00000000	0.0
100	0x00000000	0.0
101	0x00000000	0.0
102	0x00000000	0.0
103	0x00000000	0.0
104	0x00000000	0.0
105	0x00000000	0.0
106	0x00000000	0.0
107	0x00000000	0.0
108	0x00000000	0.0
109	0x00000000	0.0
110	0x00000000	0.0
111	0x00000000	0.0
112	0x00000000	0.0
113	0x00000000	0.0
114	0x00000000	0.0
115	0x00000000	0.0
116	0x00000000	0.0
117	0x00000000	0.0
118	0x00000000	0.0
119	0x00000000	0.0
120	0x00000000	0.0
121	0x00000000	0.0
122	0x00000000	0.0
123	0x00000000	0.0
124	0x00000000	0.0
125	0x00000000	0.0
126	0x00000000	0.0
127	0x00000000	0.0

action_model._continuous_distribution.log_sigma f4 [1, 2]
0	0x00000000	0.0
1	0x00000000	0.0

action_model._continuous_distribution.mu.weight f4 [2, 128]
0	0xbb3fa5f1	-0.0029243196
1	0x3c047242	0.008083882
2	0xbd05954b	-0.03261308
3	0xbc67a8c0	-0.014139354
4	0x3ca8a8bf	0.020588277
5	0xbca12d30	-0.019674867
6	0xbc481db1	-0.01221411
7	0x3c413980	0.011793494
8	0x3c98bb45	0.018643985
9	0xbb95e9af	-0.0045749764
10	0xbb977a2a	-0.0046227174
11	0x3cdae7f3	0.02672193
12	0xbc5650a2	-0.013080748
13	0xbc6ff33d	-0.014645395
14	0xbb1c3cd3	-0.0023839965
15	0xbc125abb	-0.008932765
16	0x3c52d802	0.012868883
17	0x3c83dd1c	0.016096644
18	0xbc8caea8	-0.017173126
19	0x3c953ce2	0.018217508
20	0xbbb506f8	-0.0055245124
21	0xbc702533	-0.0146573065
22	0xbc81fe09	-0.015868204
23	0xba9cd693	-0.0011965804
24	0x3a31f5e3	0.0006788654
25	0xbb63b303	-0.003474415
26	0x3bac99bb	0.0052673495
27	0x3bb6973f	0.005572229
28	0xbc8e24b4	-0.017351486
29	0x3c9339b3	0.01797185
30	0x3cafb2ae	0.021447506
31	0x38d37415	0.00010082886
32	0xbc3947c1	-0.011308611
33	0x39f7aa7b	0.0004723853
34	0xbc13fcaf	-0.009032412
35	0x3bc4aedf	0.0060022916
36	0xbcd23312	-0.025659118
37	0xbc1f8d8d	-0.009738338
38	0x3b85578c	0.0040692743
39	0xbae5f410	-0.001754405
40	0xbc2bb81f	-0.01048091
41	0x3aad52e9	0.0013223562
42	0x3b39d0b7	0.0028353164
43	0xbd265df6	-0.040616952
44	0x3ca4b8d1	0.020107659
45	0x3d0f7d16	0.0350314
46	0x3bbcbbbb	0.005759684
47	0xbb34afbc	-0.0027570566
48	0xbb194c13	-0.002339129
49	0xbbd78f22	-0.006578342
50	0xbc6bbf70	-0.014388904
51	0xbb6b3888	-0.003589185
52	0xbc96fe6b	-0.018431863
53	0xba181a1f	-0.0005802232
54	0x3cc8ba54	0.02450291
55	0xbc01a08f	-0.007911815
56	0x3c6c203f	0.014411985
57	0x3c9a6769	0.018848138
58	0xbc7b8138	-0.015350632
59	0xb9a517f7	-0.00031489108
60	0x3b1ba4f9	0.0023749454
61	0xbb4560a6	-0.0030117421
62	0xbcd9e113	-0.026596582
63	0x3ba62827	0.0050707045
64	0x3c68c808	0.014207847
65	0x3cb393a5	0.021920988
66	0xbc9818ce	-0.018566515
67	0xbc68ea67	-0.014216042
68	0xbcdf23e3	-0.027238792
69	0x3c5f0d0d	0.013613951
70	0xbc8ff62f	-0.017573444
71	0x3c052c6e	0.008128269
72	0xbc93767c	-0.018000834
73	0xbb6f4e23	-0.003651508
74	0xbca6b4fe	-0.020349976
75	0x3cd4ab28	0.02596052
76	0x3d31e1fc	0.043428406
77	0x3bde7a28	0.0067894645
78	0x3d0fc15b	0.035096508
79	0x3ad2d0da	0.0016083971
80	0x3cd5fd08	0.026121631
81	0xbc0521d0	-0.008125737
82	0x3b9c1211	0.004762896
83	0x3d20d634	0.03926678
84	0x3b99f266	0.0046980856
85	0xbc8bdd73	-0.017073369
86	0xbcab3c87	-0.020902885
87	0xbb38515b	-0.0028124664
88	0xbb07c467	-0.002071643
89	0xbc84f21b	-0.016228726
90	0x3abbd7c6	0.0014331273
91	0x3b6782af	0.0035325696
92	0xbbba91aa	-0.005693634
93	0x3b04293b	0.0020166177
94	0xbcce88cf	-0.02521172
95	0xbb31752c	-0.0027077897
96	0xbb06145f	-0.002045892
97	0xbc7064c8	-0.014672466
98	0xb9cef7ff	-0.00039476153
99	0x3d10819a	0.035279848
100	0x3bd8fb1d	0.006621732
101	0xbce3ee20	-0.027823508
102	0xba914c6e	-0.00110854
103	0x3bf00532	0.007324838
104	0x3c0edabc	0.0087191425
105	0x3c185488	0.009297498
106	0xbbaa2111	-0.00519193
107	0xbc51dc5a	-0.012808884
108	0xbcc8dc05	-0.024518976
109	0xbbe9e915	-0.0071383812
110	0xbc4acd3d	-0.012378034
111	0x3c05dea4	0.008170757
112	0xbcd62ea5	-0.026145289
113	0xbc188f91	-0.009311573
114	0x3a758d58	0.000936707
115	0xbc339d7e	-0.010962842
116	0xbca4864a	-0.020083565
117	0x3c000a36	0.0078149345
118	0xbc0dd35f	-0.008656352
119	0xbb98114d	-0.0046407343
120	0x3cc4dc08	0.0240307
121	0xbc0f9371	-0.00876318
122	0xbc84ed2b	-0.016226372
123	0xbcdad5a3	-0.026713198
124	0x39cb0432	0.00038722303
125	0x3cc6c2e4	0.024262853
126	0x3cc0abc3	0.023519402
127	0xbbac5278	-0.0052588545
128	0x3b6d6a35	0.0036226634
129	0x3c99b615	0.018763581
130	0x3cbcb06f	0.023033349
131	0xbc0ca1f0	-0.008583531
132	0xba8cd1d8	-0.0010743691
133	0xbcb06093	-0.021530425
134	0xbc6cbfef	-0.014450057
135	0xbbe184f7	-0.0068823057
136	0x3bd9450f	0.006630547
137	0x3cd8fc25	0.02648742
138	0xbc99c2b4	-0.0187696
139	0xbc2a270c	-0.010385286
140	0x3c3b3937	0.011427215
141	0x3bdfabc8	0.006825898
142	0xbc4e5cad	-0.012595338
143	0xba25afcb	-0.00063204457
144	0x3c8c4687	0.017123474
145	0xbcfa26d5	-0.030536095
146	0xbce4e678	-0.027941927
147	0x3c00e750	0.007867649
148	0x3ce5daf7	0.028058512
149	0xbbbb517c	-0.005716501
150	0x3cc2b6a9	0.02376874
151	0x3bc3dcf9	0.0059772697
152	0xbc016d2d	-0.007899565
153	0xba8fb953	-0.0010965265
154	0x3b7b6d5a	0.003836474
155	0xbb1a3eff	-0.0023536084
156	0xbc9b5815	-0.0189629
157	0x3893b2ad	7.042787e-05
158	0x3bbf9c7b	0.0058475113
159	0xbc7f12f7	-0.015568486
160	0x3d02fe14	0.03198059
161	0x3b56eee7	0.0032796205
162	0x3c37fe7f	0.01123011
163	0x3c197125	0.009365355
164	0x39fcb1cb	0.00048197652
165	0x3c79067d	0.015199301
166	0xbc94ab6e	-0.01814815
167	0x3d088b67	0.03333607
168	0x3c02fa8a	0.0079943035
169	0x3d05a525	0.032628197
170	0xbc1d4eb1	-0.009601281
171	0x3c5bd1a5	0.013416682
172	0x3b9f6473	0.0048642694
173	0x3be5db2b	0.0070146522
174	0x3c038f83	0.008029821
175	0x3b11b9cb	0.0022235985
176	0x3c206f37	0.009792141
177	0xbce676a5	-0.028132746
178	0x3a8df17d	0.0010829415
179	0xbd0d38e3	-0.03447808
180	0x3c4510f2	0.012027966
181	0x3cdfab2a	0.027303297
182	0x3c10ae1e	0.008830575
183	0xbd017548	-0.03160599
184	0x3d5ac0f7	0.053406682
185	0xbc8d7ffa	-0.017272938
186	0xbc8f3251	-0.017480047
187	0x3badd278	0.005304631
188	0xbc9e0d0f	-0.019293336
189	0xbc7fad20	-0.015605241
190	0xbc7e26bb	-0.015512164
191	0xbc2034ad	-0.009778184
192	0x3ca88d63	0.020575231
193	0x3b3533cb	0.002764928
194	0x3c933b3a	0.017972577
195	0x3c5227ba	0.012826854
196	0x3c3dfce0	0.011595935
197	0xbb3fc04a	-0.00292589
198	0xbd32c3fb	-0.043643933
199	0xbaa26e04	-0.0012392406
200	0xbca9a677	-0.02070926
201	0xbb9efb18	-0.00485171
202	0x3c911061	0.017708005
203	0xbcbd0015	-0.023071328
204	0x3beaaf00	0.007161975
205	0xbbd52197	-0.0065042484
206	0xbbc68d7d	-0.006059347
207	0xbab47adf	-0.0013769529
208	0x3b2bbbd6	0.0026204488
209	0x3c8f7726	0.01751287
210	0xbb95c5c6	-0.0045706956
211	0xbd36973f	-0.044577833
212	0x3c1ce181	0.009575249
213	0x3b5200df	0.0032043976
214	0xbbfddff0	-0.0077476427
215	0xbc8cded2	-0.017196093
216	0xbc1204ac	-0.008912247
217	0xbb6114cb	-0.003434467
218	0x3c4291da	0.011875594
219	0xbc894ceb	-0.01676031
220	0xbc9819af	-0.018566934
221	0xbcb066f1	-0.021533461
222	0xbba0e591	-0.004910179
223	0xbcd82955	-0.026386896
224	0x3b914138	0.0044328235
225	0xbbb312db	-0.005464894
226	0x3bf29fea	0.007404317
227	0xbcd2de35	-0.025740722
228	0xbc26b13b	-0.010174091
229	0xbc556dbf	-0.013026654
230	0x3c36bae9	0.011152961
231	0x3b39fd35	0.0028379683
232	0x3cc644b7	0.024202688
233	0x3bfeb423	0.007772939
234	0xbc91ada4	-0.017782994
235	0x3c882819	0.016620683
236	0xbbbc6db3	-0.005750382
237	0x3c58b95f	0.01322779
238	0xbc31da68	-0.010855295
239	0x3a19b36d	0.00058632233
240	0xbc121287	-0.00891555
241	0x3c8420c1	0.0161289
242	0x3c9f1b97	0.019422336
243	0x3ca50333	0.020143127
244	0x3c3b9669	0.011449435
245	0xbcd00b7a	-0.025396097
246	0x3d0eb4a9	0.03484026
247	0xbbe7d1bd	-0.0070745633
248	0x3ae7d14a	0.0017686274
249	0xbcbc2f07	-0.022971643
250	0x3c6a4a20	0.014299899
251	0xbc386713	-0.011255044
252	0x3c2d1edc	0.0105664395
253	0xbbec147f	-0.0072045918
254	0xbcfd11db	-0.030892303
255	0xba179683	-0.0005782621

action_model._continuous_distribution.mu.bias f4 [2]
0	0x00000000	0.0
1	0x00000000	0.0

network_body._body_endoder.seq_layers.0.weight f4 [128, 6]
0	0x3f019a7a	0.5062634
1	0x3eb34263	0.35011587
2	0xbe49f14d	-0.19720955
3	0x3f0b17d7	0.5433325
4	0xbe8ff6a5	-0.28117862
5	0x3e772eda	0.24138966
6	0x3eef624b	0.4675468
7	0x3e768a93	0.240763
8	0x3ee5bf1a	0.4487236
9	0xbe170c85	-0.1475087
10	0x3f3de839	0.7418247
11	0xbec45c83	-0.3835183
12	0xbeb32c19	-0.3499458
13	0x3dfce6f5	0.12348739
14	0xbea25942	-0.31708723
15	0xbd93ec94	-0.07222858
16	0x3f62468e	0.8838891
17	0xbf11494f	-0.56752485
18	0x3b7ddc29	0.0038735962
19	0xbf97dc5f	-1.1864127
20	0xbe7c6027	-0.24646054
21	0x3ea52547	0.32255003
22	0xbf104444	-0.56354165
23	0xbe75a7d5	-0.23989804
24	0x3edc4a6d	0.43025532
25	0x3f157e20	0.58395576
26	0x3e2d5e91	0.16930605
27	0xbf572ecb	-0.84055775
28	0xbf4a1bb2	-0.7894851
29	0xbf2f48d2	-0.6847049
30	0xbe07f840	-0.13278294
31	0xbf1d441e	-0.61432064
32	0xbe6964d1	-0.22792365
33	0xbed562f1	-0.4167705
34	0xbec8d736	-0.39226693
35	0xbe89cac2	-0.26912504
36	0xbef81ffc	-0.48461902
37	0x3e9cb324	0.30605423
38	0x3eff67b2	0.498838
39	0xbde20c0d	-0.11037455
40	0x3f35c3fb	0.7100217
41	0x3ea02489	0.31277874
42	0xbdd18523	-0.10230472
43	0x3d8f3f0d	0.06994448
44	0x3ef4404d	0.47705308
45	0xbf0943d8	-0.53619146
46	0xbddb248a	-0.10700329
47	0x3e55bf29	0.20873703
48	0xbea0b254	-0.31386054
49	0xbf506608	-0.8140569
50	0xbe0212b8	-0.12702453
51	0x3eba14d9	0.3634403
52	0x3e7b43c2	0.24537566
53	0x3dc046e5	0.09388522
54	0xbf0db288	-0.5535054
55	0x3f08db42	0.5345956
56	0x3c674af2	0.014116989
57	0x3c3577e9	0.011075952
58	0xbf23672c	-0.638293
59	0x3c3e998d	0.011633289
60	0xbea2da74	-0.31807292
61	0x3f0027c9	0.5006071
62	0x3f257e5f	0.6464595
63	0x3ed47992	0.41499
64	0x3ecb0268	0.39650273
65	0x3eacc5be	0.33744615
66	0x3e7c27d4	0.24624568
67	0x3e978042	0.2959004
68	0x3d7d4a3d	0.061838377
69	0xbf257a33	-0.64639586
70	0x3e775f8c	0.24157542
71	0xbbebaa6d	-0.007191947
72	0xbd90f594	-0.0707809
73	0xbeae41ca	-0.34034568
74	0xbd884433	-0.06653633
75	0xbd93972e	-0.072065696
76	0x3de77f52	0.11303581
77	0xbf12563e	-0.57162845
78	0x3d972598	0.07380217
79	0xbe8d260b	-0.27568087
80	0xbe8fbe02	-0.28074652
81	0x3eb4ac27	0.35287592
82	0x3c62ac2c	0.013834994
83	0xbfa18163	-1.2617611
84	0x3e3a64c9	0.18202509
85	0x3e4101a1	0.18848278
86	0xbeca1487	-0.39468786
87	0xbe76365b	-0.24044172
88	0xbe8ea3c3	-0.27859315
89	0x3dff9f9b	0.12481614
90	0x3e6a9ff7	0.22912584
91	0xbe8bd1e2	-0.27308565
92	0x3e9ff672	0.3124271
93	0x3a4ee0f8	0.00078917993
94	0x3ec9e022	0.39428812
95	0x3e1ab1f3	0.15106945
96	0xbf2ed74b	-0.6829726
97	0xbd319a47	-0.04336002
98	0x3e3eaa6a	0.18619695
99	0x3e9f920b	0.3116611
100	0x3d837b73	0.064200304
101	0x3e317e3c	0.17333311
102	0xbe2e3926	-0.17013988
103	0xbe9862a5	-0.2976276
104	0xbd199464	-0.037495032
105	0xbe1400b6	-0.14453396
106	0xbdb37a99	-0.08763618
107	0x3e5193b6	0.20466504
108	0x3e8f9f44	0.28051198
109	0x3e917765	0.28411403
110	0x3f1b3de1	0.60641295
111	0xbebb2367	-0.36550447
112	0xbe244d42	-0.16045097
113	0x3e5b0e6b	0.21392219
114	0x3f08ce1f	0.53439516
115	0xbd432469	-0.047642145
116	0xbf1a6af8	-0.6031947
117	0xbf048821	-0.51770216
118	0x3f29201c	0.6606462
119	0xbf099bee	-0.53753555
120	0x3e2b746a	0.16743627
121	0xbdf2967d	-0.118451096
122	0x3eacae83	0.33726892
123	0xbe3c4494	-0.18385535
124	0xbea08e63	-0.31358632
125	0x3f0a3358	0.53984594
126	0x3f39b9c3	0.72549075
127	0x3ec1c860	0.37848186
128	0xbecd4c63	-0.4009734
129	0xbedede23	-0.43528852
130	0x3e539be7	0.20664941
131	0x3d850922	0.064958826
132	0x3d922f97	0.07137983
133	0xbd456803	-0.048194896
134	0xbe961ac4	-0.29317296
135	0x3e1006bb	0.14065067
136	0x3e85e709	0.26152828
137	0x3df2e400	0.11859894
138	0xbe5b3f2d	-0.21410818
139	0xbf130d87	-0.57442516
140	0x3e08fadc	0.13376945
141	0x3f07f893	0.5311367
142	0x3e1adda1	0.15123607
143	0x3f177964	0.591696
144	0x3eda3b6e	0.42623466
145	0x3dbc129b	0.09183236
146	0xbf2c1341	-0.6721688
147	0x3de4afd2	0.111663476
148	0xbf2d7936	-0.6776308
149	0x3f0fc66c	0.5616214
150	0x3f2f1cbb	0.68403214
151	0x3f5d7ee7	0.8652176
152	0x3e9ac995	0.3023192
153	0x3ece2561	0.40262893
154	0xbeb690ea	-0.35657436
155	0xbe7133eb	-0.23554961
156	0x3d3ae09a	0.045624353
157	0x3e8c8c82	0.2745095
158	0x3ebfaac9	0.37434986
159	0x3e423676	0.18966088
160	0xbe1fe3c9	-0.15614237
161	0x3f426fe9	0.7595201
162	0xbeae535b	-0.3404797
163	0xbd8cd770	-0.06877029
164	0xbd9fce28	-0.07802993
165	0xbe23c35b	-0.15992491
166	0x3c9d5d3f	0.019209502
167	0x3f88a8e9	1.0676547
168	0x3e1c6273	0.1527193
169	0xbe3a24f5	-0.1817816
170	0x3f1870ad	0.5954693
171	0xbcdeb300	-0.027184963
172	0xbe576c6a	-0.2103745
173	0xbe804cc2	-0.25058562
174	0x3e869b4f	0.26290366
175	0x3edc9694	0.43083632
176	0xbe3f7cf9	-0.18700017
177	0xbd8cb26a	-0.06869967
178	0x3c8d0f52	0.01721922
179	0xbe87914e	-0.26478046
180	0x3da33adb	0.0797021
181	0xbddae796	-0.10688703
182	0x3e7c1030	0.2461555
183	0x3e239865	0.15976103
184	0xbf2304d4	-0.6367924
185	0x3de6186a	0.11235125
186	0xbd4ee074	-0.050507024
187	0xbf354390	-0.7080622
188	0xbebb3560	-0.3656416
189	0xbf5b6ca0	-0.85712624
190	0x3e6b65c1	0.22988035
191	0x3d52ba5f	0.05144727
192	0xbea2fa96	-0.31831807
193	0xbc870109	-0.016479986
194	0xbf5764b4	-0.84138036
195	0xbf01c97f	-0.50698084
196	0xbee628fe	-0.4495315
197	0x3d8cb50a	0.06870468
198	0xbef2925a	-0.47377282
199	0xbd9fe30b	-0.07806977
200	0xbe5fbb01	-0.2184868
201	0xbf2056d0	-0.62632465
202	0xbe892e30	-0.2679305
203	0x3f0e1790	0.55504704
204	0xbcb69f30	-0.022292703
205	0xbebe4d8f	-0.37168548
206	0xbc6bffd0	-0.014404252
207	0x3e95b0fe	0.29236597
208	0x3f1cde14	0.61276364
209	0x3e6c233c	0.23060316
210	0xbef794ef	-0.48355815
211	0x3e335cfa	0.17515936
212	0x3df23fc6	0.1182857
213	0xbea60c6d	-0.32431355
214	0xbecd08a2	-0.4004565
215	0xbf42d80d	-0.7611092
216	0xbd088a7c	-0.033335194
217	0xbbf5cb00	-0.007501006
218	0xbdc2eadc	-0.09517452
219	0x3ef03aec	0.46919954
220	0x3d4bbf0f	0.049742755
221	0xbf1ee8a4	-0.6207373
222	0xbf4bd396	-0.7961973
223	0xbf068464	-0.5254576
224	0xbe062416	-0.13099703
225	0xbecf0acd	-0.40437928
226	0xbe8139a0	-0.25239277
227	0x3e012d32	0.12614897
228	0xbe0773cf	-0.13227771
229	0xbeb9df91	-0.3630338
230	0xbf554ef3	-0.8332359
231	0xbec07c5f	-0.37594888
232	0x3f11c149	0.56935555
233	0x3d5f6df9	0.054548237
234	0xbe929e81	-0.28636554
235	0xbda7b6b7	-0.08189147
236	0x3ebb72e5	0.36611095
237	0xbc56f40d	-0.01311971
238	0xbea8b120	-0.32947636
239	0xbf24b0fc	-0.64332557
240	0x3e3c701c	0.18402141
241	0xbe8bca93	-0.2730299
242	0xbf2e089a	-0.67981875
243	0x3e8cd651	0.2750726
244	0x3e0b1063	0.1358047
245	0xbd9ec68f	-0.07752716
246	0xbe2ed832	-0.1707466
247	0xbcc938da	-0.024563242
248	0xbeebbaff	-0.46041104
249	0xbf6459dc	-0.89199615
250	0x3dcc5c48	0.09978539
251	0xbc58917e	-0.013218282
252	0x3ed2c8ea	0.4116891
253	0x3f3a3cb4	0.72748876
254	0x3f287dce	0.6581696
255	0x3e10a76c	0.14126366

network_body._body_endoder.seq_layers.0.bias f4 [128]
0	0x00000000	0.0
1	0x00000000	0.0
2	0x00000000	0.0
3	0x00000000	0.0
4	0x00000000	0.0
5	0x00000000	0.0
6	0x00000000	0.0
7	0x00000000	0.0
8	0x00000000	0.0
9	0x00000000	0.0
10	0x00000000	0.0
11	0x00000000	0.0
12	0x00000000	0.0
13	0x00000000	0.0
14	0x00000000	0.0
15	0x00000000	0.0
16	0x00000000	0.0
17	0x00000000	0.0
18	0x00000000	0.0
19	0x00000000	0.0
20	0x00000000	0.0
21	0x00000000	0.0
22	0x00000000	0.0
23	0x00000000	0.0
24	0x00000000	0.0
25	0x00000000	0.0
26	0x00000000	0.0
27	0x00000000	0.0
28	0x00000000	0.0
29	0x00000000	0.0
30	0x00000000	0.0
31	0x00000000	0.0
32	0x00000000	0.0
33	0x00000000	0.0
34	0x00000000	0.0
35	0x00000000	0.0
36	0x00000000	0.0
37	0x00000000	0.0
38	0x00000000	0.0
39	0x00000000	0.0
40	0x00000000	0.0
41	0x00000000	0.0
42	0x00000000	0.0
43	0x00000000	0.0
44	0x00000000	0.0
45	0x00000000	0.0
46	0x00000000	0.0
47	0x00000000	0.0
48	0x00000000	0.0
49	0x00000000	0.0
50	0x00000000	0.0
51	0x00000000	0.0
52	0x00000000	0.0
53	0x00000000	0.0
54	0x00000000	0.0
55	0x00000000	0.0
56	0x00000000	0.0
57	0x00000000	0.0
58	0x00000000	0.0
59	0x00000000	0.0
60	0x00000000	0.0
61	0x00000000	0.0
62	0x00000000	0.0
63	0x00000000	0.0
64	0x00000000	0.0
65	0x00000000	0.0
66	0x00000000	0.0
67	0x00000000	0.0
68	0x00000000	0.0
69	0x00000000	0.0
70	0x00000000	0.0
71	0x00000000	0.0
72	0x00000000	0.0
73	0x00000000	0.0
74	0x00000000	0.0
75	0x00000000	0.0
76	0x00000000	0.0
77	0x00000000	0.0
78	0x00000000	0.0
79	0x00000000	0.0
80	0x00000000	0.0
81	0x00000000	0.0
82	0x00000000	0.0
83	0x00000000	0.0
84	0x00000000	0.0
85	0x00000000	0.0
86	0x00000000	0.0
87	0x00000000	0.0
88	0x00000000	0.0
89	0x00000000	0.0
90	0x00000000	0.0
91	0x00000000	0.0
92	0x00000000	0.0
93	0x00000000	0.0
94	0x00000000	0.0
95	0x00000000	0.0
96	0x00000000	0.0
97	0x00000000	0.0
98	0x00000000	0.0
99	0x00000000	0.0
100	0x00000000	0.0
101	0x00000000	0.0
102	0x00000000	0.0
103	0x00000000	0.0
104	0x00000000	0.0
105	0x00000000	0.0
106	0x00000000	0.0
107	0x00000000	0.0
108	0x00000000	0.0
109	0x00000000	0.0
110	0x00000000	0.0
111	0x00000000	0.0
112	0x00000000	0.0
113	0x00000000	0.0
114	0x00000000	0.0
115	0x00000000	0.0
116	0x00000000	0.0
117	0x00000000	0.0
118	0x00000000	0.0
119	0x00000000	0.0
120	0x00000000	0.0
121	0x00000000	0.0
122	0x00000000	0.0
123	0x00000000	0.0
124	0x00000000	0.0
125	0x00000000	0.0
126	0x00000000	0.0
127	0x00000000	0.0

network_body._body_endoder.seq_layers.2.weight f4 [128, 128]
0	0x3d9e4b44	0.077291995
1	0xbc66bb18	-0.014082693
2	0x3d28e872	0.041237302
3	0x3a1a5566	0.0005887359
4	0xbe7e8e52	-0.24858978
5	0xbe01f182	-0.12689784
6	0x3d234403	0.039859783
7	0x3d4be52d	0.049779106
8	0xbdfc1a11	-0.12309659
9	0xbcf4de85	-0.029891262
10	0xbd1a4cb5	-0.03767081
11	0x3e119948	0.14218628
12	0x3cf2eaea	0.029653031
13	0x3d4d217d	0.050080765
14	0xbce303c2	-0.027711753
15	0x3e1c7518	0.15279043
16	0x3cbb620a	0.022873897
17	0xba92e323	-0.0011206608
18	0x3d059d44	0.032620683
19	0x3d97f3cb	0.07419547
20	0xbd996ff0	-0.074920535
21	0xbcf3dc8a	-0.029768247
22	0x3db88f0c	0.09011659
23	0x3af65724	0.001879428
24	0xbdb5c276	-0.08874981
25	0xbd5aa2b6	-0.05337783
26	0xbdaf5de8	-0.08562833
27	0xbdd3e01a	-0.10345478
28	0x3e24ad30	0.16081691
29	0xbddb9ab6	-0.10722868
30	0xbbf4c4a2	-0.0074697295
31	0x3cbfaa4d	0.023396635
32	0x3da34e9e	0.079739794
33	0xbce4de4f	-0.027938036
34	0xbd093069	-0.033493433
35	0x3c0dc35e	0.008652536
36	0x3da22e29	0.079189606
37	0xbdc25935	-0.09489671
38	0xbe01b61b	-0.12667124
39	0xbce4df16	-0.027938407
40	0xba803dbc	-0.0009784023
41	0x3e351831	0.1768501
42	0x3e3efd6c	0.1865136
43	0xbe255fd1	-0.16149832
44	0x3dcb8f06	0.09939389
45	0x3d36d985	0.044641037
46	0xbdb1d0f5	-0.086824335
47	0x3d1d0ac7	0.038340356
48	0xbd9c40a1	-0.076295145
49	0xbce446fe	-0.027865883
50	0xbe06dd83	-0.13170438
51	0x3d24eafd	0.040263165
52	0xbd9e50aa	-0.07730229
53	0xbe2daf76	-0.16961464
54	0xbdeacc94	-0.114648014
55	0x3cb3ca44	0.021947034
56	0xbde8a0aa	-0.11358769
57	0x3c7d61e0	0.01546523
58	0xbdf0b54a	-0.11753328
59	0x3d51f936	0.051263057
60	0x3cf41c09	0.029798524
61	0xbbf0a5a5	-0.007343965
62	0xbc3a09c9	-0.011354872
63	0x3b8c8b56	0.004289071
64	0x3c410966	0.011782026
65	0x3dd5006f	0.10400473
66	0x3caac633	0.020846462
67	0x3ddb570a	0.10709961
68	0xbc996a38	-0.018727407
69	0xbd59da56	-0.053186737
70	0x3d6739c5	0.056451578
71	0x3e1b8622	0.15187886
72	0xbc0f7409	-0.008755692
73	0xbd42b958	-0.04754004
74	0xbd69122c	-0.056902096
75	0x3d35893f	0.04432034
76	0xbd27893d	-0.040902365
77	0x3d9e0657	0.07716053
78	0x3e03638b	0.12830941
79	0x3db7eedd	0.089811064
80	0x3d693fbf	0.05694556
81	0xbe15683f	-0.14590548
82	0x3d88d01e	0.0668032
83	0xbe1008e1	-0.14065887
84	0x3e0787c6	0.13235387
85	0xbceef78d	-0.029170776
86	0x3d997c42	0.074944034
87	0xbe0521d1	-0.13001181
88	0xbd1e1bb7	-0.03860065
89	0x3da147a4	0.078749925
90	0x3d135722	0.03597177
91	0xbdc22c09	-0.09481055
92	0x3dfe4cd3	0.12416997
93	0xbd51220c	-0.05105786
94	0x3c08e3cd	0.008355093
95	0xbcb8ac98	-0.022543237
96	0x3dd8e17e	0.10589884
97	0x3b587b68	0.003303254
98	0x3be20558	0.0068976097
99	0xbdcba14e	-0.09942876
100	0xbdb5aca9	-0.08870823
101	0xbcac515f	-0.021034895
102	0x3d95b97e	0.073107705
103	0x3e5d1d58	0.21593225
104	0x3e1243df	0.14283703
105	0xbb86bb25	-0.004111665
106	0x3ce4ffcb	0.027954003
107	0x3d1f3659	0.03887019
108	0x3d252f1d	0.040328134
109	0x3df0dae6	0.117605016
110	0x3c820b94	0.015874662
111	0x3ce2a6cc	0.027667426
112	0x3dadc45e	0.0848472
113	0x3d59b56a	0.053151526
114	0xbcc53408	-0.024072662
115	0x3c6c98ab	0.014440696
116	0xbe035e41	-0.12828924
117	0xbdd1679d	-0.10224841
118	0x3dfa660c	0.12226495
119	0xbe31ab6b	-0.17350547
120	0xbcb07b2c	-0.021543108
121	0x3d992bf9	0.0747909
122	0xbd187556	-0.037221275
123	0x3d01e2d3	0.031710457
124	0xbcad5f5e	-0.021163639
125	0xbda54f3c	-0.080717534
126	0xbd0f97d6	-0.03505691
127	0xbdd2da45	-0.10295538
128	0x3d8889c9	0.066669054
129	0xbd1814a9	-0.037129078
130	0xbcdf7a8b	-0.027280113
131	0x3d7fb897	0.062431898
132	0x3e34bbf3	0.17649822
133	0x3d23055a	0.039800026
134	0x3cd7b79d	0.02633267
135	0x3ddf50ee	0.10904108
136	0xbde6ac6b	-0.11263355
137	0x3db888be	0.090104565
138	0x3d4ffe1b	0.050779443
139	0xbc246c94	-0.010035653
140	0xbd25d7aa	-0.040488876
141	0x3d6d98cf	0.058007058
142	0xbd94b126	-0.07260351
143	0x3dc364fe	0.09540747
144	0x3dfbc95e	0.12294267
145	0xbdfc47cc	-0.12318382
146	0x3d99dabc	0.075124234
147	0x3e3e4612	0.18581417
148	0x3e141050	0.14459348
149	0x3d2c2f65	0.042037386
150	0xbd317782	-0.043326862
151	0xbcaedb29	-0.021344738
152	0x3d4b8b8c	0.04969363
153	0xbd7ee213	-0.06222732
154	0xbcc1dae0	-0.023663938
155	0x3e3186f5	0.17336638
156	0xbda6c4db	-0.08143016
157	0xbdc846e6	-0.09779148
158	0xbe268958	-0.1626333
159	0xbe0cd7db	-0.13754217
160	0xbd73beba	-0.059508063
161	0xbd242f5b	-0.040084224
162	0x3d62f07a	0.055405118
163	0x3c94cb7e	0.018163439
164	0x3d8a9c04	0.06768039
165	0xbd8d9f16	-0.06915109
166	0xbcdee0c7	-0.027206792
167	0xbc91a07b	-0.017776718
168	0x3d832da7	0.06405192
169	0xbd850ca9	-0.06496555
170	0x3ca29ccd	0.019850159
171	0xbdac19a3	-0.08403327
172	0x3d6433b0	0.055713356
173	0xbd545fea	-0.051849283
174	0x3d22cf7f	0.039748665
175	0x3c35f2dd	0.011105266
176	0x3c849926	0.016186308
177	0x3c0207ed	0.00793646
178	0x3d060c3b	0.032726508
179	0x3d90ec64	0.07076338
180	0xbd432a3e	-0.047647707
181	0xbd47d23a	-0.048784472
182	0x3baeef8a	0.005338614
183	0x3d97dddb	0.074153624
184	0x3de838e8	0.11338979
185	0x3e90a9fe	0.28254694
186	0xbdfa566e	-0.122235164
187	0xbe80a058	-0.25122333
188	0xbda7e863	-0.08198621
189	0xbd836726	-0.064161584
190	0x3e3114ca	0.17293087
191	0x3d4e96d2	0.050436802
192	0x3cde4af8	0.027135357
193	0x3c19b0f8	0.009380572
194	0xbda96bdd	-0.082725264
195	0x3cb2682e	0.021778192
196	0xbc5b3bad	-0.013380927
197	0xbd73a0a7	-0.059479382
198	0x3e040fcd	0.12896653
199	0xbd473e26	-0.048643254
200	0x3d3bde0f	0.04586607
201	0x3de1727f	0.110081665
202	0xbd64535d	-0.055743564
203	0xbcea6790	-0.028613836
204	0xbd9728e7	-0.073808484
205	0xbe3ee783	-0.18643002
206	0x3d97d06c	0.074128
207	0x3d70419b	0.058656316
208	0xbcd4b62a	-0.025965769
209	0xbbd0d34b	-0.0063728443
210	0xbd9973d6	-0.07492797
211	0xb8cc8b8b	-9.75347e-05
212	0xbd1b7b62	-0.037959464
213	0xbabe08d6	-0.0014498483
214	0xbd8053b4	-0.06265965
215	0xbdc85feb	-0.0978392
216	0xbc37e5c5	-0.011224215
217	0x3ca12c84	0.019674547
218	0xbd9ddbab	-0.07707914
219	0x3d539e3f	0.051664587
220	0xbd667423	-0.0562631
221	0x3e179a95	0.14805062
222	0xbdc5f72f	-0.09666287
223	0x3cca38ba	0.024685252
224	0x3de497b0	0.111617446
225	0xbc07e02b	-0.008293192
226	0x3c477d57	0.012175879
227	0x3d45d260	0.048296332
228	0x3da43dc7	0.080195956
229	0xbd7e679e	-0.062110536
230	0xb84c7403	-4.8745434e-05
231	0x3d03ab05	0.03214552
232	0xbc93dde1	-0.018050136
233	0xbdd82df9	-0.105556436
234	0xbd47e5cf	-0.048803147
235	0x3dba298d	0.090899564
236	0xbe019edc	-0.12658256
237	0xbdfdcf9c	-0.12393114
238	0xbe02871c	-0.12746853
239	0x3d216403	0.03940202
240	0xbdb447ee	-0.08802782
241	0xbdf01b0c	-0.11723909
242	0x3e2b0971	0.1670282
243	0xbd2ea2c2	-0.042635687
244	0x3d636cbe	0.055523627
245	0x3e0287c7	0.12747107
246	0x3d8e7534	0.069559485
247	0xbd94387e	-0.072373375
248	0x3d5df485	0.05418827
249	0xbdc4719e	-0.09591983
250	0x3e0dbd68	0.13841784
251	0xbcefb0da	-0.029259134
252	0xbe147662	-0.14498284
253	0x3d1506ca	0.036383428
254	0x3d1500a9	0.036377583
255	0xbe638b34	-0.2222107

network_body._body_endoder.seq_layers.2.bias f4 [128]
0	0x00000000	0.0
1	0x00000000	0.0
2	0x00000000	0.0
3	0x00000000	0.0
4	0x00000000	0.0
5	0x00000000	0.0
6	0x00000000	0.0
7	0x00000000	0.0
8	0x00000000	0.0
9	0x00000000	0.0
10	0x00000000	0.0
11	0x00000000	0.0
12	0x00000000	0.0
13	0x00000000	0.0
14	0x00000000	0.0
15	0x00000000	0.0
16	0x00000000	0.0
17	0x00000000	0.0
18	0x00000000	0.0
19	0x00000000	0.0
20	0x00000000	0.0
21	0x00000000	0.0
22	0x00000000	0.0
23	0x00000000	0.0
24	0x00000000	0.0
25	0x00000000	0.0
26	0x00000000	0.0
27	0x00000000	0.0
28	0x00000000	0.0
29	0x00000000	0.0
30	0x00000000	0.0
31	0x00000000	0.0
32	0x00000000	0.0
33	0x00000000	0.0
34	0x00000000	0.0
35	0x00000000	0.0
36	0x00000000	0.0
37	0x00000000	0.0
38	0x00000000	0.0
39	0x00000000	0.0
40	0x00000000	0.0
41	0x00000000	0.0
42	0x00000000	0.0
43	0x00000000	0.0
44	0x00000000	0.0
45	0x00000000	0.0
46	0x00000000	0.0
47	0x00000000	0.0
48	0x00000000	0.0
49	0x00000000	0.0
50	0x00000000	0.0
51	0x00000000	0.0
52	0x00000000	0.0
53	0x00000000	0.0
54	0x00000000	0.0
55	0x00000000	0.0
56	0x00000000	0.0
57	0x00000000	0.0
58	0x00000000	0.0
59	0x00000000	0.0
60	0x00000000	0.0
61	0x00000000	0.0
62	0x00000000	0.0
63	0x00000000	0.0
64	0x00000000	0.0
65	0x00000000	0.0
66	0x00000000	0.0
67	0x00000000	0.0
68	0x00000000	0.0
69	0x00000000	0.0
70	0x00000000	0.0
71	0x00000000	0.0
72	0x00000000	0.0
73	0x00000000	0.0
74	0x00000000	0.0
75	0x00000000	0.0
76	0x00000000	0.0
77	0x00000000	0.0
78	0x00000000	0.0
79	0x00000000	0.0
80	0x00000000	0.0
81	0x00000000	0.0
82	0x00000000	0.0
83	0x00000000	0.0
84	0x00000000	0.0
85	0x00000000	0.0
86	0x00000000	0.0
87	0x00000000	0.0
88	0x00000000	0.0
89	0x00000000	0.0
90	0x00000000	0.0
91	0x00000000	0.0
92	0x00000000	0.0
93	0x00000000	0.0
94	0x00000000	0.0
95	0x00000000	0.0
96	0x00000000	0.0
97	0x00000000	0.0
98	0x00000000	0.0
99	0x00000000	0.0
100	0x00000000	0.0
101	0x00000000	0.0
102	0x00000000	0.0
103	0x00000000	0.0
104	0x00000000	0.0
105	0x00000000	0.0
106	0x00000000	0.0
107	0x00000000	0.0
108	0x00000000	0.0
109	0x00000000	0.0
110	0x00000000	0.0
111	0x00000000	0.0
112	0x00000000	0.0
113	0x00000000	0.0
114	0x00000000	0.0
115	0x00000000	0.0
116	0x00000000	0.0
117	0x00000000	0.0
118	0x00000000	0.0
119	0x00000000	0.0
120	0x00000000	0.0
121	0x00000000	0.0
122	0x00000000	0.0
123	0x00000000	0.0
124	0x00000000	0.0
125	0x00000000	0.0
126	0x00000000	0.0
127	0x00000000	0.0

value_heads.value_heads.extrinsic.weight f4 [1, 128]
0	0x3e17f7e8	0.14840662
1	0x3d4cec70	0.050030172
2	0xbe390da2	-0.18071607
3	0x3dbd9994	0.09257808
4	0xbe50c958	-0.20389307
5	0x3d5e8b38	0.054331988
6	0xbdae682c	-0.08515963
7	0xbe28069e	-0.16408774
8	0xbd3dd948	-0.046349794
9	0xbe41991a	-0.1890606
10	0xbe23922b	-0.15973727
11	0xbd9f975c	-0.077925414
12	0x3e0edfb2	0.1395252
13	0x3de00960	0.10939288
14	0xbe115656	-0.14193091
15	0x3e1b1b84	0.15147215
16	0x3dffb9f8	0.124866426
17	0xbd2435a8	-0.040090233
18	0xbd15581c	-0.03646098
19	0xbe3ff869	-0.18747105
20	0x3daf5edc	0.08563015
21	0xbc469610	-0.012120739
22	0xbd403fb0	-0.046935737
23	0xbd56d768	-0.05245152
24	0x3e398006	0.18115243
25	0x3e3ba066	0.18322906
26	0xbdd1383b	-0.10215803
27	0x3c582380	0.013192058
28	0x3d7a4490	0.061100543
29	0x3def9cb4	0.116998106
30	0x3e347938	0.17624366
31	0x3e041ad2	0.12900856
32	0x3e108de0	0.14116621
33	0x3dfe9e4c	0.124325365
34	0x3c5e58d0	0.013570979
35	0xbd8e8a5a	-0.06959982
36	0xbdfb9854	-0.12284914
37	0xbe131a26	-0.14365444
38	0x3ddc22fc	0.1074886
39	0x3db2ed8c	0.08736715
40	0x3e267b5c	0.16257995
41	0xbe43025d	-0.1904387
42	0x3d9ff440	0.07810259
43	0x3db19a98	0.086720645
44	0x3adf2300	0.0017023981
45	0x3e4d8916	0.20071825
46	0xbc8bed40	-0.017080903
47	0x3d682f38	0.056685656
48	0x3e0cd9b8	0.13754928
49	0xbd78b79c	-0.06072198
50	0x3dbefbd8	0.09325379
51	0x3e0a0f46	0.13482389
52	0x3de8b564	0.113627225
53	0x3db56104	0.08856395
54	0x3dcbaf70	0.099455714
55	0xbc9a3150	-0.018822342
56	0x3cfbf0a0	0.030754387
57	0xbc7c72b0	-0.015408203
58	0xbdcedac0	-0.10100317
59	0xbe3446e2	-0.17605165
60	0xbdf6cbcd	-0.12050591
61	0x3dec23e0	0.1153028
62	0xbcb9f198	-0.022698209
63	0x3db3b924	0.08775547
64	0x3ce148b0	0.02750048
65	0x3e261676	0.16219506
66	0x3e2ea37c	0.17054552
67	0xbdd50e7e	-0.10403155
68	0x3e4ed86a	0.20199743
69	0xbc66e530	-0.0140927285
70	0xbe3512dd	-0.17682977
71	0x3e51b85a	0.20480481
72	0x3e4dca74	0.20096761
73	0x3ce35f60	0.02775544
74	0xbd13b89c	-0.03606473
75	0x3e095f32	0.1341522
76	0x3d1aad80	0.03776312
77	0x3d46b260	0.048509955
78	0x3e097efe	0.1342735
79	0xbe4a4fb1	-0.19756962
80	0x3c9630a0	0.018333733
81	0xbe1660bd	-0.1468534
82	0x3e11a7f2	0.14224222
83	0x3e05b45a	0.1305708
84	0xbe4b36c0	-0.19845104
85	0xbdb5457c	-0.08851144
86	0xbdf113f2	-0.117713824
87	0x3e088626	0.13332424
88	0xbd5be534	-0.053685382
89	0x3e22e94a	0.15909305
90	0xbe2e5da6	-0.17027912
91	0xbd140784	-0.03613998
92	0x3e0b3804	0.13595587
93	0xbe437bb4	-0.19090158
94	0xbdc80ef2	-0.097684756
95	0xbe48c143	-0.19604973
96	0x3d00c070	0.031433523
97	0x3cf3ea90	0.029774934
98	0xbe2d4769	-0.16921772
99	0xbe4a10c9	-0.19732966
100	0x3e2c2ecc	0.16814727
101	0xbe225dee	-0.15856144
102	0xbdb58708	-0.08863646
103	0xbca6e3a8	-0.020372227
104	0x3e5246fc	0.20534891
105	0x3d845cb0	0.06462991
106	0xbe511960	-0.20419836
107	0x3dab9324	0.08377674
108	0xbe2d0989	-0.16898169
109	0x3c681260	0.014164537
110	0xbe2bf40c	-0.16792315
111	0xbd2ad860	-0.041710258
112	0x3e40d84a	0.18832508
113	0x3e15db50	0.14634442
114	0xbe350e88	-0.17681324
115	0xbc2690c0	-0.010166347
116	0x3da60bac	0.08107695
117	0x3e41077a	0.18850508
118	0xbde8a95a	-0.11360426
119	0xbc120910	-0.0089132935
120	0xbd1f4ca0	-0.038891435
121	0xbd852ba0	-0.065024614
122	0xbc6298c0	-0.013830364
123	0xbe1ccd96	-0.153128
124	0x3e0be21c	0.13660473
125	0x3e215ec4	0.15758806
126	0x3dbeecc8	0.09322506
127	0x3d9a0ae4	0.075216085
