results/emptyCourse/MoveToGoal/MoveToGoal-1664.onnx (onnx, 72644 bytes, 7 tensors)

network_body._body_endoder.seq_layers.0.weight f4 [128, 6]
000000 50 45 0a 3e 06 12 31 3e 67 98 02 3f 6a b7 ff bd
       0.13503003 0.17292032 0.510138 -0.12486155
000010 66 40 0a bf ec 5b fe be d7 46 9d be 5d bb 95 3e
       -0.54004514 -0.49679506 -0.3071811 0.2924451
000020 78 da 18 be 8a a1 0f bf f8 6c 7b 3e 5e 26 98 be
       -0.14927089 -0.56105864 0.24553287 -0.29716772
000030 23 f5 d3 3e f8 78 8f 3e 91 9e 35 be 3f d3 a3 be
       0.41397962 0.2802198 -0.1773627 -0.31997105
000040 6d 3f bd be 52 c1 2e 3b bb 98 91 bd cd d9 5f 3e
       -0.36962453 0.002666552 -0.07109209 0.21860428
000050 f9 e6 b6 be f4 d6 42 bf 77 4b 99 3d d6 f8 ec be
       -0.35723093 -0.7610924 0.07485097 -0.46283597
000060 15 a6 09 3f 0d cb 39 be ec 46 82 be eb 94 e7 3e
       0.53769046 -0.18143864 -0.25444734 0.45230803
000070 96 dd 0e 3e 6a bf 70 3d 45 fa 2a 3e 7d e4 36 be
       0.13951716 0.058776297 0.16697033 -0.17860599
000080 97 30 86 bd 2e 81 39 bf c2 7e 6f be 97 bb 87 be
       -0.065522365 -0.7246274 -0.23388198 -0.26510307
000090 3c 2b 1b 3f d2 4c 90 3d b3 a4 36 bf b8 90 9f 3e
       0.60612845 0.07045902 -0.7134506 0.311651
0000a0 27 32 ac 3e b6 8c 8c be c0 d6 13 bf 66 b5 03 bf
       0.33632013 -0.27451104 -0.5774956 -0.5144867
0000b0 32 b5 26 bf b2 de ef bd c8 b8 8e bb f4 4d c0 bd
       -0.6512023 -0.11712398 -0.0043555237 -0.093898684
0000c0 ca cd 72 3f 13 d6 e2 3e d0 73 a0 3e 50 2c a2 3e
       0.9484526 0.4430395 0.31338358 0.31674433
0000d0 e9 ae 8d be f0 65 d8 3e bb ba 12 3e 6e c6 02 3e
       -0.27672508 0.42265272 0.14329045 0.12771007
0000e0 dd 4e 0f 3f a2 cd 53 bd 20 48 05 3e 63 56 43 be
       0.5597971 -0.05170978 0.13015795 -0.19075923
0000f0 d1 e5 12 3f 6e 64 10 bf 5d 9f 0d bf e3 30 03 bf
       0.5738192 -0.56403244 -0.55321294 -0.5124647
000100 2c 32 df bc a1 03 54 3e 7d cd 8c be 1d a4 d0 bc
       -0.027245604 0.2070451 -0.27500525 -0.02546888
000110 a4 53 7f 3e da 38 3e bf 45 79 c2 3e 2d 59 3d 3f
       0.2493425 -0.743055 0.37983146 0.73964196
000120 c1 7a 0b 3f 00 17 cd 3e 32 ec db bd 1e 87 c7 be
       0.5448418 0.4005661 -0.1073841 -0.38970274
000130 17 ca 5d 3e 8f 1e 60 3f 04 8d 08 3d b7 48 50 3d
       0.21659122 0.8754663 0.033337608 0.050850596
000140 01 26 5e 3d d0 c4 11 bf b3 c3 08 bf 39 03 99 be
       0.054235462 -0.5694094 -0.53423613 -0.2988527
000150 37 cb df 3e e1 67 b4 3e 77 6c 15 3e fb dc 05 3f
       0.43709728 0.35235503 0.14592157 0.52290314
000160 99 9d cb 3e 9c 19 1e 3d 00 c0 36 bf 74 2e 0d bf
       0.39768675 0.03859864 -0.7138672 -0.55149007
000170 a4 a6 0c bf 99 dc 26 bd 29 6d cd be 94 b7 87 3e
       -0.54941773 -0.040737722 -0.40122345 0.26507246
000180 63 73 89 3e ee f0 23 3f 63 7b 84 3e dc 0b 8f be
       0.26845846 0.64039505 0.25875387 -0.27938735
000190 fc 3b e3 3e 5e df ba 3d 21 8f 32 3f 3d de f2 be
       0.44381702 0.09124635 0.6974965 -0.4743518
0001a0 d8 f2 46 be 97 6d 33 be c0 1e 0f 3e ae 7f 2c 3f
       -0.19428575 -0.17522274 0.13976574 0.67382324
0001b0 9a e9 ce 3e 89 00 c4 be 0a 86 b3 3e dc 94 05 bf
       0.404126 -0.38281658 0.350632 -0.52180266
0001c0 0d da f1 3c 0c a2 e7 be 38 7e b7 3d 70 64 fc bc
       0.02952292 -0.4524082 0.08959621 -0.030809611
0001d0 52 0a c7 3c c6 da 11 be 47 2e bd 3e 0c 0e 85 be
       0.024296913 -0.14243612 0.3694937 -0.2598728
0001e0 1a bd bf 3e 64 80 80 bd 53 99 fc bd 14 8a 25 3d
       0.3744896 -0.062744886 -0.12333932 0.040414885
0001f0 a4 aa 13 bf 0c 69 1f bf 20 64 38 bf d0 5b b7 be
       -0.5768225 -0.62269664 -0.7202778 -0.35812235
000200 5d fa bc bc 49 fb 73 3e 98 7c b8 3e 37 69 83 3e
       -0.023068601 0.23826326 0.36032557 0.2566621
000210 9e 96 96 3d 89 94 67 3c ca 2e 24 3e 24 95 8f be
       0.07352947 0.014134535 0.16033474 -0.28043473
000220 b0 86 aa 3e 81 4f 88 bf f0 b1 74 be 4e a9 33 bd
       0.33305883 -1.0649263 -0.23896003 -0.043862633
000230 8b 79 2b 3d 2f 6b 3f be 4f bb b5 3e 00 23 bd 3e
       0.04186396 -0.18693231 0.35494468 0.36940765
000240 de da 50 bf a1 56 0b be c5 e3 80 be 14 11 8b be
       -0.81583965 -0.13607265 -0.25173774 -0.27161467
000250 38 8e 3a 3f 20 ab ac be a1 c5 ae 3e 0d 8a 7e be
       0.7287326 -0.33724308 0.34135154 -0.2485735
000260 14 5d f1 bb 77 04 be 3e 14 5d 63 bc 24 eb 17 bd
       -0.007365832 0.3711278 -0.013877172 -0.037089482
000270 a3 4b 8f 3e b7 53 dc 3b a7 f1 66 3e d5 0f 38 3f
       0.27987394 0.006723847 0.2255312 0.7189916
000280 84 c5 8e be ca 72 41 3c e9 2b 04 be 86 49 94 be
       -0.27885067 0.011807153 -0.12907375 -0.28962344
000290 ab ed 15 3e 67 d5 9d 3c e2 22 c7 3e b8 7c aa bd
       0.14641444 0.019266797 0.388938 -0.083245695
0002a0 fb ca 42 3e 0e 07 0b be 8e c8 c7 3e 27 29 03 3f
       0.19022743 -0.1357691 0.390202 0.5123467
0002b0 27 4c 64 3c 13 ed 11 bd 0c 57 36 be 57 84 63 bd
       0.013934172 -0.035626482 -0.17806643 -0.05554613
0002c0 ac ed 68 3e 78 55 25 3e c4 d3 be 3e a1 0e 5d 3e
       0.22746915 0.16145885 0.3727094 0.21587612
0002d0 e7 f8 19 3e 0a 0a f7 bd 8d 4b 3e be 93 70 9e 3e
       0.15036355 -0.12062462 -0.18583508 0.30945262
0002e0 1f 30 4d bc 8b 1e e6 3e f0 46 0a 3f 8f 44 2c be
       -0.01252368 0.44945177 0.5401449 -0.16823028
0002f0 4e f4 9f 3e 3a 91 c2 3e 79 59 12 3f 00 52 24 3f
       0.31241077 0.38001424 0.57167774 0.6418762
000300 33 1e 37 3f 36 8d ca 3c ac 91 0d 3d 58 e5 fe 3e
       0.71530455 0.024725538 0.03456275 0.4978435
000310 17 24 4d bf ad c2 b8 3e 35 73 d2 3d 1c 68 50 3e
       -0.80133194 0.36086026 0.1027588 0.20352215
000320 fc ae 21 be b8 db 2b 3e 96 d4 90 be 37 d9 56 bd
       -0.15789407 0.16783035 -0.2828719 -0.052453246
000330 ac a3 14 bf 9a f8 90 3e b7 9a b4 be 61 d1 a3 bd
       -0.58062243 0.28314668 -0.35274288 -0.0799892
000340 10 7c 8f 3e 2f e7 f6 be 67 c7 d4 be e8 3b 07 bf
       0.2802434 -0.48223254 -0.41558382 -0.52825785
000350 9a 18 3a 3c e1 1e 7c 3d 66 f6 4e be fc b7 f9 be
       0.0113584045 0.061552886 -0.20211181 -0.4877318
000360 06 1d 3b be 46 a2 23 bf 9e 2e 21 bf 38 1d 3f bf
       -0.1827279 -0.63919485 -0.6296176 -0.7465396
000370 b3 4e f7 be c3 54 b5 3e 75 b5 2f 3f 11 a7 82 3f
       -0.4830223 0.3541623 0.68636256 1.0207235
000380 69 10 25 bf 97 85 b1 3e 3f 8a 0f bf 82 dd b8 bb
       -0.64478165 0.34672233 -0.5607032 -0.00564164
000390 5f f0 c7 3c 8f 2c 1d 3f 56 f2 76 3e 57 ff 57 3e
       0.02440661 0.61396116 0.24115881 0.21093498
0003a0 80 77 9b 3d b3 59 3e be 6a c7 63 3c 72 f1 d4 3e
       0.07591152 -0.18588905 0.0139025245 0.41590458
0003b0 97 89 55 bf d3 25 31 bf a1 7e f4 3e 67 3c c0 3e
       -0.8341307 -0.6919834 0.4775286 0.37546083
0003c0 64 db e4 be 24 00 f2 bc ed 3c 2b 3d 32 15 e3 bd
       -0.44698632 -0.029541083 0.04180615 -0.11088027
0003d0 ed 62 5c be 2a 5e 4a 3f b6 f8 ce bc 8a cd 4d be
       -0.21522112 0.7904993 -0.025265079 -0.20097938
0003e0 61 fb a7 3d 27 26 8a 3b b3 40 92 3c 09 6b ad 3e
       0.082022436 0.004215974 0.017853117 0.33870724
0003f0 b4 35 25 3f e0 59 8d 3e 97 e1 ce bc 97 1b bc be
       0.6453507 0.27607632 -0.025254054 -0.367398

network_body._body_endoder.seq_layers.0.bias f4 [128]
000000 00 00 00 00 00 00 00 00 00 00 00 00 00 00 00 00
       0.0 0.0 0.0 0.0
000010 00 00 00 00 00 00 00 00 00 00 00 00 00 00 00 00
       0.0 0.0 0.0 0.0
000020 00 00 00 00 00 00 00 00 00 00 00 00 00 00 00 00
       0.0 0.0 0.0 0.0
000030 00 00 00 00 00 00 00 00 00 00 00 00 00 00 00 00
       0.0 0.0 0.0 0.0
000040 00 00 00 00 00 00 00 00 00 00 00 00 00 00 00 00
       0.0 0.0 0.0 0.0
000050 00 00 00 00 00 00 00 00 00 00 00 00 00 00 00 00
       0.0 0.0 0.0 0.0
000060 00 00 00 00 00 00 00 00 00 00 00 00 00 00 00 00
       0.0 0.0 0.0 0.0
000070 00 00 00 00 00 00 00 00 00 00 00 00 00 00 00 00
       0.0 0.0 0.0 0.0
000080 00 00 00 00 00 00 00 00 00 00 00 00 00 00 00 00
       0.0 0.0 0.0 0.0
000090 00 00 00 00 00 00 00 00 00 00 00 00 00 00 00 00
       0.0 0.0 0.0 0.0
0000a0 00 00 00 00 00 00 00 00 00 00 00 00 00 00 00 00
       0.0 0.0 0.0 0.0
0000b0 00 00 00 00 00 00 00 00 00 00 00 00 00 00 00 00
       0.0 0.0 0.0 0.0
0000c0 00 00 00 00 00 00 00 00 00 00 00 00 00 00 00 00
       0.0 0.0 0.0 0.0
0000d0 00 00 00 00 00 00 00 00 00 00 00 00 00 00 00 00
       0.0 0.0 0.0 0.0
0000e0 00 00 00 00 00 00 00 00 00 00 00 00 00 00 00 00
       0.0 0.0 0.0 0.0
0000f0 00 00 00 00 00 00 00 00 00 00 00 00 00 00 00 00
       0.0 0.0 0.0 0.0
000100 00 00 00 00 00 00 00 00 00 00 00 00 00 00 00 00
       0.0 0.0 0.0 0.0
000110 00 00 00 00 00 00 00 00 00 00 00 00 00 00 00 00
       0.0 0.0 0.0 0.0
000120 00 00 00 00 00 00 00 00 00 00 00 00 00 00 00 00
       0.0 0.0 0.0 0.0
000130 00 00 00 00 00 00 00 00 00 00 00 00 00 00 00 00
       0.0 0.0 0.0 0.0
000140 00 00 00 00 00 00 00 00 00 00 00 00 00 00 00 00
       0.0 0.0 0.0 0.0
000150 00 00 00 00 00 00 00 00 00 00 00 00 00 00 00 00
       0.0 0.0 0.0 0.0
000160 00 00 00 00 00 00 00 00 00 00 00 00 00 00 00 00
       0.0 0.0 0.0 0.0
000170 00 00 00 00 00 00 00 00 00 00 00 00 00 00 00 00
       0.0 0.0 0.0 0.0
000180 00 00 00 00 00 00 00 00 00 00 00 00 00 00 00 00
       0.0 0.0 0.0 0.0
000190 00 00 00 00 00 00 00 00 00 00 00 00 00 00 00 00
       0.0 0.0 0.0 0.0
0001a0 00 00 00 00 00 00 00 00 00 00 00 00 00 00 00 00
       0.0 0.0 0.0 0.0
0001b0 00 00 00 00 00 00 00 00 00 00 00 00 00 00 00 00
       0.0 0.0 0.0 0.0
0001c0 00 00 00 00 00 00 00 00 00 00 00 00 00 00 00 00
       0.0 0.0 0.0 0.0
0001d0 00 00 00 00 00 00 00 00 00 00 00 00 00 00 00 00
       0.0 0.0 0.0 0.0
0001e0 00 00 00 00 00 00 00 00 00 00 00 00 00 00 00 00
       0.0 0.0 0.0 0.0
0001f0 00 00 00 00 00 00 00 00 00 00 00 00 00 00 00 00
       0.0 0.0 0.0 0.0

network_body._body_endoder.seq_layers.2.weight f4 [128, 128]
000000 39 80 54 bd 9e ba 00 3e b2 05 8a bc 3e a9 38 bd
       -0.051880095 0.12571189 -0.016848419 -0.045083277
000010 66 49 3c bc 4d 36 80 bd 88 fb cc 3d c9 61 63 3c
       -0.011492109 -0.06260357 0.10008913 0.013878294
000020 c7 b0 39 bd 44 91 88 3e a9 42 46 bc 23 d4 06 bc
       -0.045334604 0.2667333 -0.012100854 -0.008229288
000030 86 aa 63 3d 92 46 fa 3c 5b d1 81 3c d4 02 43 bd
       0.055582546 0.030551229 0.015846899 -0.04761012
000040 e1 6d 55 bc 68 97 80 3d ed 7f e4 3d 40 5b 3b bd
       -0.013026685 0.062788785 0.111572124 -0.04574132
000050 01 72 01 3c 6c ad b7 3d e1 b5 26 bd 77 c7 d0 3c
       0.007900716 0.089686245 -0.040700797 0.025485737
000060 73 ca 03 3d db bc 97 bd 76 5e a7 3d 4a 60 7a bd
       0.032175492 -0.07409068 0.08172314 -0.061126985
000070 9c 7a fe bd 25 9e c1 3c 93 9c 7a bd 37 13 2f 3e
       -0.1242573 0.02363498 -0.061184477 0.17097174
000080 59 49 55 bd 0d f5 c5 3d b1 52 72 bd a9 34 89 3d
       -0.052071903 0.0966588 -0.059160892 0.06699497
000090 be c3 77 3c fb 87 28 3e bb 87 07 3e 0c cb 1a bd
       0.015122352 0.16458122 0.13235371 -0.037791297
0000a0 8d f4 fd bc 7a a3 ec bd 5c c7 a6 3d 28 62 c9 bd
       -0.0310004 -0.11554618 0.081434935 -0.09833175
0000b0 ab 83 14 bc 4d ab 2e 3d 9b b9 18 bd ae 3f 15 be
       -0.009064595 0.042643834 -0.037286382 -0.14575073
0000c0 75 69 86 3d 50 cb 08 ba a4 d3 27 bd cc b7 38 bb
       0.06563083 -0.0005218284 -0.04097332 -0.0028185723
0000d0 ef 58 42 be f9 6c 50 bd 14 8a 2f 3d 83 90 cd 3d
       -0.18979238 -0.050885174 0.04285629 0.10037329
0000e0 72 49 f5 bd 55 59 00 be 09 82 0e 3c 8f 82 20 be
       -0.11976899 -0.12534077 0.008697995 -0.15674804
0000f0 fd 15 00 3e 80 b4 44 bd 96 76 56 3d 0e e5 26 3e
       0.12508388 -0.0480237 0.052359186 0.16298315
000100 db d5 dc 3d e5 40 ce bc 1a cd 1f 3d 7b 0b 4b be
       0.10782977 -0.025177428 0.03901396 -0.19828598
000110 92 20 f7 bd 66 29 82 3d a4 76 25 bd f4 ae 50 3c
       -0.12066759 0.063555524 -0.040396348 0.012737025
000120 b6 cc 8e bc 49 b5 62 3c 92 a0 92 bd f7 ef e3 3d
       -0.017431598 0.013837167 -0.071595326 0.11129754
000130 da b6 69 bc 67 64 03 3e ca 67 1e 3e 98 ee d1 bd
       -0.014264787 0.12831269 0.1546928 -0.10250586
000140 ef 81 3f bd d4 ab 52 3d 3e e7 24 3e d5 0d b5 bd
       -0.046754774 0.0514334 0.16103837 -0.08840529
000150 45 0f 16 3e 21 4a 6e 3e 84 65 cd bb 71 0a df bc
       0.14654262 0.23270465 -0.006268205 -0.027226659
000160 96 02 1e 3d ad f0 cb 3c b8 32 0f 3d 98 38 33 3d
       0.038576685 0.024895037 0.03496048 0.043755144
000170 fc 4b a4 3d e7 b1 c3 3d 2c fa b9 bd bf cc bd 3c
       0.08022305 0.095554166 -0.090809196 0.02316892
000180 e2 89 58 bc 9d e2 1c be 6f e3 9b bd 62 35 f4 bd
       -0.013216468 -0.15320821 -0.07611739 -0.119242445
000190 dc 65 80 3c 05 0b 73 3d 4a 1a 6f be d5 5c 82 bd
       0.01567357 0.05933668 -0.23349872 -0.063653626
0001a0 74 94 75 bd 54 02 67 3d 06 ee 83 bd 05 5d 15 3d
       -0.05995603 0.056398705 -0.06441884 0.036465663
0001b0 a0 f8 12 3d c9 07 2b 3d 95 cc 63 3c fd 31 c9 3d
       0.03588164 0.04175547 0.013903757 0.09823988
0001c0 c0 6b c3 bd b1 1e c7 bd 8b aa 53 3d 50 7a ec 3c
       -0.09542036 -0.09722651 0.051676314 0.028866917
0001d0 52 1a e9 bd c3 f2 5b 3d 4f 15 83 bd 1a 02 b5 bc
       -0.11381973 0.053698312 -0.06400549 -0.022095729
0001e0 fe 59 7c 3d 8b eb 33 bd 2a 69 d6 bd 26 db 04 bd
       0.06160926 -0.043925803 -0.10469277 -0.03243556
0001f0 ce dd 03 bd dd a4 0c 3d 81 47 c3 bd 28 c9 3a 3b
       -0.03219395 0.034336913 -0.09535123 0.0028501246
000200 f2 a1 32 bd 1a 64 0b be bf a4 94 3c e4 cf 78 3c
       -0.043611474 -0.13612404 0.018144963 0.015186284
000210 21 d1 af 3d 76 f7 3b 3d 7c 3b c8 bd 14 a5 76 3c
       0.0858481 0.045890294 -0.09776971 0.015054006
000220 66 ec 6a 3d 35 72 1b 3d 83 8a 22 3e 7c f0 cb bd
       0.057354353 0.037950713 0.1587315 -0.09957978
000230 33 8e ea 3c f8 de 8d bd f7 c1 9f bd 7a d0 3a 3c
       0.028632259 -0.069272935 -0.07800668 0.011402244
000240 62 30 0e 3e 48 6a 8d bb 47 ab d6 bd e5 07 a7 3c
       0.13885644 -0.004315648 -0.10481887 0.020389507
000250 30 e0 fe bd 2f 56 05 3c 49 65 b5 3c f8 2a 74 bc
       -0.12445104 0.008138224 0.022143023 -0.014902823
000260 76 ce 3d bd e1 56 36 3d 6c 28 ca bc b5 83 ec 3d
       -0.046339475 0.044516448 -0.024677478 0.115485586
000270 11 4b c7 3d f7 1a af bd 27 bf 62 bc 58 d7 68 3b
       0.09731115 -0.08550065 -0.01383952 0.0035528746
000280 8e d1 30 bc ce 34 20 be a0 bc c6 bd 25 e6 19 3e
       -0.010792149 -0.15645143 -0.09703946 0.150292
000290 27 7d 84 3b 5b bb 92 bd 8b ce 8e bd 52 a5 00 be
       0.0040432396 -0.071646415 -0.06972989 -0.12563065
0002a0 92 ba 43 be 17 0a db 3d 44 15 0a bd de bc 0c bc
       -0.1911414 0.10695284 -0.033711687 -0.008589951
0002b0 a7 82 23 3d 97 1f 2c 3d 60 de 91 3c 06 85 6e bd
       0.03991952 0.042022314 0.017806232 -0.05823233
0002c0 b1 2b ed 3d 32 4d cf bd 55 31 4d bd 2f 4e 61 3d
       0.11580599 -0.10122146 -0.050095875 0.055006202
0002d0 78 f8 21 bd 64 47 2d bb 39 8d cf bc 70 b9 82 bd
       -0.0395436 -0.0026440257 -0.025335895 -0.06383026
0002e0 97 90 f0 3c 6d 4f 70 bd 6c 25 84 3d 95 94 60 bd
       0.02936582 -0.058669496 0.0645245 -0.0548292
0002f0 41 ba 56 be d7 15 d8 3d ec 1a 82 3d f5 bc 45 3c
       -0.20969488 0.105510406 0.06352791 0.012068977
000300 96 d2 2e be 1c e3 b4 bd 1e a9 4e bc 37 2b 2b 3d
       -0.1707252 -0.0883238 -0.012613563 0.04178926
000310 2e 5a b6 3c 47 21 ec 3c 48 b8 fe 3d 96 7e 3c bd
       0.022259798 0.028824462 0.124374926 -0.04601916
000320 97 e4 e9 3c 33 e8 54 ba 70 6d 81 3d 5c 58 84 3c
       0.028551383 -0.00081217586 0.06319702 0.016155414
000330 9d ff 14 bd a0 4d 46 bd 9b bd 8a bd bb 7e 7e 3d
       -0.036376584 -0.048413873 -0.067744456 0.06213258
000340 e7 18 d5 bd 81 63 07 be 41 72 83 bd 28 34 4a bd
       -0.1040514 -0.13221551 -0.064182766 -0.049366146
000350 99 ff 18 3e d6 b0 07 be 68 88 c0 3c bb 3d 2c bd
       0.14941253 -0.13251051 0.023502544 -0.04205106
000360 41 ab d6 3c b2 eb 8a bd f7 4d a9 3c 25 f4 cf 3d
       0.026204707 -0.067832366 0.02066706 0.10153989
000370 8a b7 83 3d a2 15 f6 3c c4 dc 24 bd 3f c7 da bd
       0.06431492 0.030039612 -0.0402496 -0.106825344
000380 d6 01 44 be 86 ac 5d be eb 1b a6 3b 35 14 c8 bc
       -0.19141325 -0.21647844 0.005069246 -0.024423698
000390 d9 4d 1a 3d f3 a2 dd 3c 9e 27 25 3e 2c 04 e0 bc
       0.037671898 0.02705524 0.16128394 -0.02734574
0003a0 60 f9 36 bd f2 69 18 3e 63 48 c5 3d 8f a0 d0 3d
       -0.044671416 0.14884165 0.09632947 0.10186874
0003b0 df e1 b4 3d c9 68 50 bc 21 7d 8e 3d b6 e3 70 3d
       0.08832144 -0.012720295 0.0695746 0.058810912
0003c0 22 d1 15 be a4 f1 85 3d 65 e7 26 3b 8b 2f b7 3d
       -0.14630559 0.0654023 0.0025467512 0.08944615
0003d0 3e bc 3f bb db b5 ff bb 1c bd 32 3d a6 22 c5 3c
       -0.0029256488 -0.0078036613 0.04363738 0.024064373
0003e0 fc d6 c4 3d be 2b f8 3d 0d 2c 37 3c e6 1e 17 3e
       0.096113175 0.12117718 0.011179936 0.1475788
0003f0 1f dd ff bc 73 68 a3 3d 0a 7c 14 bc 87 4b 5a be
       -0.031233368 0.079789065 -0.009062776 -0.21317874

network_body._body_endoder.seq_layers.2.bias f4 [128]
000000 00 00 00 00 00 00 00 00 00 00 00 00 00 00 00 00
       0.0 0.0 0.0 0.0
000010 00 00 00 00 00 00 00 00 00 00 00 00 00 00 00 00
       0.0 0.0 0.0 0.0
000020 00 00 00 00 00 00 00 00 00 00 00 00 00 00 00 00
       0.0 0.0 0.0 0.0
000030 00 00 00 00 00 00 00 00 00 00 00 00 00 00 00 00
       0.0 0.0 0.0 0.0
000040 00 00 00 00 00 00 00 00 00 00 00 00 00 00 00 00
       0.0 0.0 0.0 0.0
000050 00 00 00 00 00 00 00 00 00 00 00 00 00 00 00 00
       0.0 0.0 0.0 0.0
000060 00 00 00 00 00 00 00 00 00 00 00 00 00 00 00 00
       0.0 0.0 0.0 0.0
000070 00 00 00 00 00 00 00 00 00 00 00 00 00 00 00 00
       0.0 0.0 0.0 0.0
000080 00 00 00 00 00 00 00 00 00 00 00 00 00 00 00 00
       0.0 0.0 0.0 0.0
000090 00 00 00 00 00 00 00 00 00 00 00 00 00 00 00 00
       0.0 0.0 0.0 0.0
0000a0 00 00 00 00 00 00 00 00 00 00 00 00 00 00 00 00
       0.0 0.0 0.0 0.0
0000b0 00 00 00 00 00 00 00 00 00 00 00 00 00 00 00 00
       0.0 0.0 0.0 0.0
0000c0 00 00 00 00 00 00 00 00 00 00 00 00 00 00 00 00
       0.0 0.0 0.0 0.0
0000d0 00 00 00 00 00 00 00 00 00 00 00 00 00 00 00 00
       0.0 0.0 0.0 0.0
0000e0 00 00 00 00 00 00 00 00 00 00 00 00 00 00 00 00
       0.0 0.0 0.0 0.0
0000f0 00 00 00 00 00 00 00 00 00 00 00 00 00 00 00 00
       0.0 0.0 0.0 0.0
000100 00 00 00 00 00 00 00 00 00 00 00 00 00 00 00 00
       0.0 0.0 0.0 0.0
000110 00 00 00 00 00 00 00 00 00 00 00 00 00 00 00 00
       0.0 0.0 0.0 0.0
000120 00 00 00 00 00 00 00 00 00 00 00 00 00 00 00 00
       0.0 0.0 0.0 0.0
000130 00 00 00 00 00 00 00 00 00 00 00 00 00 00 00 00
       0.0 0.0 0.0 0.0
000140 00 00 00 00 00 00 00 00 00 00 00 00 00 00 00 00
       0.0 0.0 0.0 0.0
000150 00 00 00 00 00 00 00 00 00 00 00 00 00 00 00 00
       0.0 0.0 0.0 0.0
000160 00 00 00 00 00 00 00 00 00 00 00 00 00 00 00 00
       0.0 0.0 0.0 0.0
000170 00 00 00 00 00 00 00 00 00 00 00 00 00 00 00 00
       0.0 0.0 0.0 0.0
000180 00 00 00 00 00 00 00 00 00 00 00 00 00 00 00 00
       0.0 0.0 0.0 0.0
000190 00 00 00 00 00 00 00 00 00 00 00 00 00 00 00 00
       0.0 0.0 0.0 0.0
0001a0 00 00 00 00 00 00 00 00 00 00 00 00 00 00 00 00
       0.0 0.0 0.0 0.0
0001b0 00 00 00 00 00 00 00 00 00 00 00 00 00 00 00 00
       0.0 0.0 0.0 0.0
0001c0 00 00 00 00 00 00 00 00 00 00 00 00 00 00 00 00
       0.0 0.0 0.0 0.0
0001d0 00 00 00 00 00 00 00 00 00 00 00 00 00 00 00 00
       0.0 0.0 0.0 0.0
0001e0 00 00 00 00 00 00 00 00 00 00 00 00 00 00 00 00
       0.0 0.0 0.0 0.0
0001f0 00 00 00 00 00 00 00 00 00 00 00 00 00 00 00 00
       0.0 0.0 0.0 0.0

action_model._continuous_distribution.log_sigma f4 [1, 2]
000000 00 00 00 00 00 00 00 00
       0.0 0.0

action_model._continuous_distribution.mu.weight f4 [2, 128]
000000 f1 a5 3f bb 42 72 04 3c 4b 95 05 bd c0 a8 67 bc
       -0.0029243196 0.008083882 -0.03261308 -0.014139354
000010 bf a8 a8 3c 30 2d a1 bc b1 1d 48 bc 80 39 41 3c
       0.020588277 -0.019674867 -0.01221411 0.011793494
000020 45 bb 98 3c af e9 95 bb 2a 7a 97 bb f3 e7 da 3c
       0.018643985 -0.0045749764 -0.0046227174 0.02672193
000030 a2 50 56 bc 3d f3 6f bc d3 3c 1c bb bb 5a 12 bc
       -0.013080748 -0.014645395 -0.0023839965 -0.008932765
000040 02 d8 52 3c 1c dd 83 3c a8 ae 8c bc e2 3c 95 3c
       0.012868883 0.016096644 -0.017173126 0.018217508
000050 f8 06 b5 bb 33 25 70 bc 09 fe 81 bc 93 d6 9c ba
       -0.0055245124 -0.0146573065 -0.015868204 -0.0011965804
000060 e3 f5 31 3a 03 b3 63 bb bb 99 ac 3b 3f 97 b6 3b
       0.0006788654 -0.003474415 0.0052673495 0.005572229
000070 b4 24 8e bc b3 39 93 3c ae b2 af 3c 15 74 d3 38
       -0.017351486 0.01797185 0.021447506 0.00010082886
000080 c1 47 39 bc 7b aa f7 39 af fc 13 bc df ae c4 3b
       -0.011308611 0.0004723853 -0.009032412 0.0060022916
000090 12 33 d2 bc 8d 8d 1f bc 8c 57 85 3b 10 f4 e5 ba
       -0.025659118 -0.009738338 0.0040692743 -0.001754405
0000a0 1f b8 2b bc e9 52 ad 3a b7 d0 39 3b f6 5d 26 bd
       -0.01048091 0.0013223562 0.0028353164 -0.040616952
0000b0 d1 b8 a4 3c 16 7d 0f 3d bb bb bc 3b bc af 34 bb
       0.020107659 0.0350314 0.005759684 -0.0027570566
0000c0 13 4c 19 bb 22 8f d7 bb 70 bf 6b bc 88 38 6b bb
       -0.002339129 -0.006578342 -0.014388904 -0.003589185
0000d0 6b fe 96 bc 1f 1a 18 ba 54 ba c8 3c 8f a0 01 bc
       -0.018431863 -0.0005802232 0.02450291 -0.007911815
0000e0 3f 20 6c 3c 69 67 9a 3c 38 81 7b bc f7 17 a5 b9
       0.014411985 0.018848138 -0.015350632 -0.00031489108
0000f0 f9 a4 1b 3b a6 60 45 bb 13 e1 d9 bc 27 28 a6 3b
       0.0023749454 -0.0030117421 -0.026596582 0.0050707045
000100 08 c8 68 3c a5 93 b3 3c ce 18 98 bc 67 ea 68 bc
       0.014207847 0.021920988 -0.018566515 -0.014216042
000110 e3 23 df bc 0d 0d 5f 3c 2f f6 8f bc 6e 2c 05 3c
       -0.027238792 0.013613951 -0.017573444 0.008128269
000120 7c 76 93 bc 23 4e 6f bb fe b4 a6 bc 28 ab d4 3c
       -0.018000834 -0.003651508 -0.020349976 0.02596052
000130 fc e1 31 3d 28 7a de 3b 5b c1 0f 3d da d0 d2 3a
       0.043428406 0.0067894645 0.035096508 0.0016083971
000140 08 fd d5 3c d0 21 05 bc 11 12 9c 3b 34 d6 20 3d
       0.026121631 -0.008125737 0.004762896 0.03926678
000150 66 f2 99 3b 73 dd 8b bc 87 3c ab bc 5b 51 38 bb
       0.0046980856 -0.017073369 -0.020902885 -0.0028124664
000160 67 c4 07 bb 1b f2 84 bc c6 d7 bb 3a af 82 67 3b
       -0.002071643 -0.016228726 0.0014331273 0.0035325696
000170 aa 91 ba bb 3b 29 04 3b cf 88 ce bc 2c 75 31 bb
       -0.005693634 0.0020166177 -0.02521172 -0.0027077897
000180 5f 14 06 bb c8 64 70 bc ff f7 ce b9 9a 81 10 3d
       -0.002045892 -0.014672466 -0.00039476153 0.035279848
000190 1d fb d8 3b 20 ee e3 bc 6e 4c 91 ba 32 05 f0 3b
       0.006621732 -0.027823508 -0.00110854 0.007324838
0001a0 bc da 0e 3c 88 54 18 3c 11 21 aa bb 5a dc 51 bc
       0.0087191425 0.009297498 -0.00519193 -0.012808884
0001b0 05 dc c8 bc 15 e9 e9 bb 3d cd 4a bc a4 de 05 3c
       -0.024518976 -0.0071383812 -0.012378034 0.008170757
0001c0 a5 2e d6 bc 91 8f 18 bc 58 8d 75 3a 7e 9d 33 bc
       -0.026145289 -0.009311573 0.000936707 -0.010962842
0001d0 4a 86 a4 bc 36 0a 00 3c 5f d3 0d bc 4d 11 98 bb
       -0.020083565 0.0078149345 -0.008656352 -0.0046407343
0001e0 08 dc c4 3c 71 93 0f bc 2b ed 84 bc a3 d5 da bc
       0.0240307 -0.00876318 -0.016226372 -0.026713198
0001f0 32 04 cb 39 e4 c2 c6 3c c3 ab c0 3c 78 52 ac bb
       0.00038722303 0.024262853 0.023519402 -0.0052588545
000200 35 6a 6d 3b 15 b6 99 3c 6f b0 bc 3c f0 a1 0c bc
       0.0036226634 0.018763581 0.023033349 -0.008583531
000210 d8 d1 8c ba 93 60 b0 bc ef bf 6c bc f7 84 e1 bb
       -0.0010743691 -0.021530425 -0.014450057 -0.0068823057
000220 0f 45 d9 3b 25 fc d8 3c b4 c2 99 bc 0c 27 2a bc
       0.006630547 0.02648742 -0.0187696 -0.010385286
000230 37 39 3b 3c c8 ab df 3b ad 5c 4e bc cb af 25 ba
       0.011427215 0.006825898 -0.012595338 -0.00063204457
000240 87 46 8c 3c d5 26 fa bc 78 e6 e4 bc 50 e7 00 3c
       0.017123474 -0.030536095 -0.027941927 0.007867649
000250 f7 da e5 3c 7c 51 bb bb a9 b6 c2 3c f9 dc c3 3b
       0.028058512 -0.005716501 0.02376874 0.0059772697
000260 2d 6d 01 bc 53 b9 8f ba 5a 6d 7b 3b ff 3e 1a bb
       -0.007899565 -0.0010965265 0.003836474 -0.0023536084
000270 15 58 9b bc ad b2 93 38 7b 9c bf 3b f7 12 7f bc
       -0.0189629 7.042787e-05 0.0058475113 -0.015568486
000280 14 fe 02 3d e7 ee 56 3b 7f fe 37 3c 25 71 19 3c
       0.03198059 0.0032796205 0.01123011 0.009365355
000290 cb b1 fc 39 7d 06 79 3c 6e ab 94 bc 67 8b 08 3d
       0.00048197652 0.015199301 -0.01814815 0.03333607
0002a0 8a fa 02 3c 25 a5 05 3d b1 4e 1d bc a5 d1 5b 3c
       0.0079943035 0.032628197 -0.009601281 0.013416682
0002b0 73 64 9f 3b 2b db e5 3b 83 8f 03 3c cb b9 11 3b
       0.0048642694 0.0070146522 0.008029821 0.0022235985
0002c0 37 6f 20 3c a5 76 e6 bc 7d f1 8d 3a e3 38 0d bd
       0.009792141 -0.028132746 0.0010829415 -0.03447808
0002d0 f2 10 45 3c 2a ab df 3c 1e ae 10 3c 48 75 01 bd
       0.012027966 0.027303297 0.008830575 -0.03160599
0002e0 f7 c0 5a 3d fa 7f 8d bc 51 32 8f bc 78 d2 ad 3b
       0.053406682 -0.017272938 -0.017480047 0.005304631
0002f0 0f 0d 9e bc 20 ad 7f bc bb 26 7e bc ad 34 20 bc
       -0.019293336 -0.015605241 -0.015512164 -0.009778184
000300 63 8d a8 3c cb 33 35 3b 3a 3b 93 3c ba 27 52 3c
       0.020575231 0.002764928 0.017972577 0.012826854
000310 e0 fc 3d 3c 4a c0 3f bb fb c3 32 bd 04 6e a2 ba
       0.011595935 -0.00292589 -0.043643933 -0.0012392406
000320 77 a6 a9 bc 18 fb 9e bb 61 10 91 3c 15 00 bd bc
       -0.02070926 -0.00485171 0.017708005 -0.023071328
000330 00 af ea 3b 97 21 d5 bb 7d 8d c6 bb df 7a b4 ba
       0.007161975 -0.0065042484 -0.006059347 -0.0013769529
000340 d6 bb 2b 3b 26 77 8f 3c c6 c5 95 bb 3f 97 36 bd
       0.0026204488 0.01751287 -0.0045706956 -0.044577833
000350 81 e1 1c 3c df 00 52 3b f0 df fd bb d2 de 8c bc
       0.009575249 0.0032043976 -0.0077476427 -0.017196093
000360 ac 04 12 bc cb 14 61 bb da 91 42 3c eb 4c 89 bc
       -0.008912247 -0.003434467 0.011875594 -0.01676031
000370 af 19 98 bc f1 66 b0 bc 91 e5 a0 bb 55 29 d8 bc
       -0.018566934 -0.021533461 -0.004910179 -0.026386896
000380 38 41 91 3b db 12 b3 bb ea 9f f2 3b 35 de d2 bc
       0.0044328235 -0.005464894 0.007404317 -0.025740722
000390 3b b1 26 bc bf 6d 55 bc e9 ba 36 3c 35 fd 39 3b
       -0.010174091 -0.013026654 0.011152961 0.0028379683
0003a0 b7 44 c6 3c 23 b4 fe 3b a4 ad 91 bc 19 28 88 3c
       0.024202688 0.007772939 -0.017782994 0.016620683
0003b0 b3 6d bc bb 5f b9 58 3c 68 da 31 bc 6d b3 19 3a
       -0.005750382 0.01322779 -0.010855295 0.00058632233
0003c0 87 12 12 bc c1 20 84 3c 97 1b 9f 3c 33 03 a5 3c
       -0.00891555 0.0161289 0.019422336 0.020143127
0003d0 69 96 3b 3c 7a 0b d0 bc a9 b4 0e 3d bd d1 e7 bb
       0.011449435 -0.025396097 0.03484026 -0.0070745633
0003e0 4a d1 e7 3a 07 2f bc bc 20 4a 6a 3c 13 67 38 bc
       0.0017686274 -0.022971643 0.014299899 -0.011255044
0003f0 dc 1e 2d 3c 7f 14 ec bb db 11 fd bc 83 96 17 ba
       0.0105664395 -0.0072045918 -0.030892303 -0.0005782621

action_model._continuous_distribution.mu.bias f4 [2]
000000 00 00 00 00 00 00 00 00
       0.0 0.0
